fashion_sgm/80epoch/fashion_sgm_model_max.pth (torch, 943741 bytes, 6 tensors)

1.weight f4 [256, 784]
00000000: 39c8 14be 3ff4 8abe eb2f 143b eeff a4be
00000010: ecec 1d3e d43e 8e3e d2a5 1a3e 5e4c ea3c
00000020: be90 f2be a2ac 71bf bfe2 c1bf e5c0 b5bd
00000030: 689b 203f 5554 0e3f bc85 f13e 5ca3 0f3f
00000040: 2ceb d53d a85b 55bf 7308 97bf a3c5 2cbf
00000050: efc6 aabe 2e48 81be 4cb2 163e 0c51 dd3d
00000060: ab08 933d 1da5 093e 4468 37bb 2098 92bd
00000070: ed09 323e 3bee 523d dca1 65be 2370 98be
00000080: 1333 e23d 8b1d 0b3f 59ed da3e ea80 d23d
00000090: 3498 a7be 02b1 1bbf c58e e6be 1888 19be
000000a0: 0c8e a93d 40a6 583e 4110 803e 48e0 693e
000000b0: 238b 14be fbee 06bf b946 2dbf 7514 e5be
000000c0: e026 10be 7896 4dbe cb37 e5bd f491 2d3d
000000d0: 700f 2dbe b0e4 a5bd c4ec 793e 01aa 2b3e
000000e0: c573 e13c 41c5 643e f7b2 23be ab1d 02be
000000f0: 3ae7 443e c631 273d 39d0 a3bd 0bde 21be
00000100: 41d3 43be ff3e 80bd 260b 6d3d 2780 583b
00000110: 28c6 a23d f6c9 9a3e bb79 a33e 884c 083e
00000120: df92 d3bb f005 0fbd b80e f2bd c196 f9bd
00000130: 734f 85be 8a2c 40be edc3 4bbe 5d32 d63d
00000140: 9bcd bcbe 7fbf 56be b2d8 513c cf44 123e
00000150: 0bca 053d 2aad 4abe d42f 863c 75da f83d
00000160: bc0f 9c3d 876c c23c 022a ecbd fcb5 213d
00000170: d2b9 fa3a 3537 863b 308f 88bd c879 bebd
00000180: e3be fd3d 8272 b93e 3a03 913e be64 513e
00000190: 2193 a93d 5eff 78bd 6fa3 f9bc cb67 373d
000001a0: 5e97 c93d 295e 1fbd df5c 23be f654 9e3d
000001b0: 094a 4b3c 828f 87bc 158e 6ebe 4597 373d
000001c0: ce46 c6bd 901c 033d bec2 e63d 62ed 5bbe
000001d0: b5dd c2bd 24e5 39be db35 a5bd 5e24 86bb
000001e0: 127a aebd 6b12 bebd 9646 bbbd b4f9 99bb
000001f0: 46b1 dc3d 8eb9 893e a91d 903e 29a5 1c3e
00000200: c678 debc 5ffb 15be 8913 10be 1a83 3bbd
00000210: d41b b5bd 3cab 79bd 1cf4 23be b624 14bf
00000220: 94c4 dabd 8c07 273d e2a8 9c3d ad60 a43e
00000230: 54ae 7c3e 17ed ae3e 9c69 7ebd b4de ddbe
00000240: 777c 2bbe 5ef1 cebe 80be 17be 2e0f 78bd
00000250: 06d6 93bd 10ff d8bd 7bc0 11bc 0b20 063d
00000260: 40c3 d33c 2515 193e c99f 483e 58f4 623d
00000270: 3656 cb3b 5fbd e5bd 3529 07be 3fd9 cbbd
00000280: a06f f9bd bf69 94bd 6e53 55be b960 b7be
00000290: 3a1a 49bf 4e09 36be aa0c 8b3e d638 c73e
000002a0: fc17 803e 8e1e 473d 4bf1 2abe 50e1 2ebe
000002b0: 9c83 85bd 6731 b0be b00b f4bd 4552 65bd
000002c0: 0c4a dc3c 72d2 babc ce01 bd3c d3dc e03d
000002d0: d267 953d 68cb 993d 4cb1 2c3e 86a6 a5bc
000002e0: 4735 a9bc 3120 0b3d 18f5 bfbd cf33 fcbc
000002f0: 7169 dabd ecd3 52bc 69b3 5dbe 2caf aabe
00000300: 9ca2 22be 547e c9be 0da6 6ebd 1b3a b13e
00000310: f0df b7be eac4 89bd daa9 c8bd 2b18 493e
00000320: 6b5c 303d f712 53be 6380 2bbd 9889 d43c
00000330: 7833 2dbb 8a97 f5bd 695e 63bd cc11 743d
00000340: fccc c83c 9956 98bc cce0 8c3d 3415 01bb
00000350: 09f3 2cbd d298 23bb 394a 83bd 7e68 a1bb
00000360: 04e3 a9bd eb19 9a3c 94d4 dabd bc8e 1dbe
00000370: 6351 d83c 9090 1ebe 4a55 e7bd bb02 15be
00000380: c0ce 40be 440a a53e 0e9b ae3e e5a3 983e
00000390: 387c 843d 02ad f6bd c683 073b f909 053d
000003a0: facc 023d 97c9 e8bc 4c3a c4bd b5a6 883c
000003b0: 9173 bb3c 88fc 533c c634 df3d d5dc 373d
000003c0: dd77 973d e699 0039 426c 32bc 736c d83c
000003d0: 3aab fcbc 6e69 66bc 3981 d7bd be84 c7bd
000003e0: ed3b 13bc c002 9b3d eda5 843e 0db7 96be
000003f0: 46c3 8f3e 4814 0d3f 989b cf3e 314b 753e
-0.14529504 -0.2713947 0.002261157 -0.3222651 0.1542241 0.2778231 0.15102318 0.028600868
-0.47376055 -0.9440404 -1.5147322 -0.08874682 0.6273713 0.5559743 0.47172344 0.5610864
0.10445246 -0.8334298 -1.1799453 -0.6748907 -0.333549 -0.2525038 0.14716452 0.10806474
0.07179388 0.13441892 -0.002798573 -0.07157922 0.17386599 0.051496726 -0.22425026 -0.29773054
0.11044898 0.54341954 0.42759207 0.10278495 -0.3273331 -0.6081697 -0.450308 -0.14993322
0.082790464 0.2115717 0.250124 0.22839463 -0.14506201 -0.52708405 -0.6768604 -0.4474217
-0.1407733 -0.2007693 -0.11192282 0.04237552 -0.1690042 -0.08100259 0.24406725 0.1676407
0.027521024 0.22340871 -0.15986238 -0.1270663 0.19228831 0.040818952 -0.079987 -0.15807359
-0.19123556 -0.062620156 0.05787196 0.003303537 0.079479516 0.3023221 0.3192881 0.13310444
-0.0064567174 -0.03491777 -0.11819214 -0.12186957 -0.26037177 -0.1876699 -0.19898959 0.10458825
-0.36875615 -0.20971487 0.012808012 0.14284061 0.032663386 -0.1979262 0.016380228 0.12151042
0.076201886 0.02373339 -0.1153145 0.039480194 0.0019128865 0.0040959367 -0.06667936 -0.09300572
0.123899244 0.36220175 0.28322774 0.20448586 0.08280016 -0.060790412 -0.030473439 0.04477672
0.09843324 -0.038908157 -0.15953396 0.07731049 0.012407788 -0.016547922 -0.23296387 0.044821996
-0.09681474 0.03200966 0.11267613 -0.21477273 -0.095149435 -0.18153816 -0.08066913 -0.004093691
-0.08519377 -0.09280857 -0.091443226 -0.0046989564 0.10776 0.2689938 0.2814763 0.15297379
-0.027157199 -0.14646672 -0.14069952 -0.045779325 -0.088431984 -0.060954317 -0.16011089 -0.57868516
-0.106820256 0.04077868 0.07649399 0.32105008 0.24675876 0.3416526 -0.062112436 -0.43333972
-0.16746698 -0.40418524 -0.14818764 -0.06056135 -0.07218556 -0.10595524 -0.008895989 0.032745402
0.025849938 0.14949472 0.19592203 0.055408806 0.0062053455 -0.1121776 -0.13199313 -0.09953546
-0.12179494 -0.07246732 -0.20832607 -0.3581598 -0.78555644 -0.17776987 0.271581 0.3891055
0.250183 0.048613124 -0.16693608 -0.17078137 -0.06519243 -0.3441269 -0.11916292 -0.05598666
0.026890777 -0.022805426 0.02307215 0.10979619 0.07295193 0.075095 0.16864508 -0.020221006
-0.020655287 0.033966247 -0.0937292 -0.030786423 -0.106646426 -0.012867909 -0.21650471 -0.3333677
-0.15882343 -0.39354193 -0.058263827 0.34614643 -0.35913038 -0.067270115 -0.097980216 0.19638126
0.043056887 -0.20612703 -0.041870486 0.025944516 -0.0026428383 -0.119917944 -0.05550996 0.059587285
0.024511807 -0.01859598 0.06878814 -0.0019696476 -0.042223964 -0.0024962914 -0.06410641 -0.0049257865
-0.08295253 0.018811187 -0.10685077 -0.1538648 0.026405996 -0.15484834 -0.112955645 -0.14551823
-0.18828869 0.32234395 0.34102672 0.29812542 0.06469005 -0.12044717 0.0020677908 0.032480214
0.031933762 -0.028416438 -0.09581432 0.016681055 0.022882255 0.012938626 0.108987376 0.044888336
0.07395909 0.00012264363 -0.0108900685 0.0264189 -0.030843366 -0.014063222 -0.10522694 -0.097421154
-0.008986455 0.07568884 0.2590784 -0.29436532 0.2807867 0.5510907 0.40548396 0.23954464

1.bias f4 [256]
00000000: db97 83bd ed4a adbc fd6b 75be 26a6 0cbd
00000010: 6426 0f3f e3d4 b0bc 78a4 32bd d6f1 423d
00000020: f8ed 303e 89fc 0e3f 2d79 c63e 048c 9c3c
00000030: 55ea 953d 8d56 77be 9300 8a3e c76e 813e
00000040: 20e8 c13e e1f8 45bd be74 c13e 1ac7 303c
00000050: a985 cbba 95af 903e 09db c9bc 2714 10be
00000060: e38e 06bd 9412 acbc 04c0 833c 983a 2a3c
00000070: f083 aa3c 2636 1f3c 6654 3fbc f7fb 6b3e
00000080: 93d8 03bd e43e 15bd 227f 03bd 6622 97bc
00000090: daf5 353f 8474 073e 2f6b b53b ecd9 463e
000000a0: b45d b5be 7b18 b33b bbc0 073f e7a7 a7bc
000000b0: 2b0b 173e 72de b43e a556 253e a72d 01bd
000000c0: e217 b53e d99b 14bd 3242 243c 6bf1 9d3c
000000d0: 67e0 20bc 22c4 9b3e c0df 04bd c8b9 043c
000000e0: d43c 73bc 3372 153f 7842 03bd 6ae8 ba3e
000000f0: c86a 193f 18b3 aabc d7a3 3c3e 33f5 14bc
00000100: 46bd be3c 4379 893e 2103 8d3d 1e0f 193f
00000110: ce49 50bc 6d1b 07bd 4212 603b 5b79 a53e
00000120: f488 f53d a7dd 193e 7935 ab3e d40e 9e3c
00000130: 7c8c 42bd d384 51bc 8cfc 1fbd 1371 08be
00000140: 1cf7 e0bc d19e c03e ebce 813c 47c5 e2bb
00000150: c06f d63e d67c 373e 6e15 903c 5ab2 b43e
00000160: e71e 7a3e b708 bd3e 9a1e 72bd cf71 cf3e
00000170: b86d 44be e4aa 91ba 3217 37be 21e8 dc3e
00000180: ae27 0e3f 4df7 e73e 3219 c23e 7688 7b3c
00000190: 3d02 a7bc a0e9 f9be d107 2dbe c35c 0b3f
000001a0: cc1c bb3d ba34 2cbe b899 e0bc 7476 2a3f
000001b0: 588b 523e bde2 fabc 9184 043f e106 6f3e
000001c0: ab8b 953b dde6 18bd cb63 f4bd 5bfc 863b
000001d0: 1d30 db3a 2b61 133e e44a 213e fff2 ba3c
000001e0: 657a fbbc 8ba7 663e 443c 8b3e 5698 14bd
000001f0: 9c15 ad3e e394 3cbd ca35 dd3e 8c96 c33e
00000200: 99a4 163f 7930 413e d65e 27be 9cb9 04bd
00000210: 22b1 d83e 7995 a3be eb11 033e e3cf 17bc
00000220: 7973 cbbc 5c79 843e 6493 923e eb78 d93e
00000230: 1ece 093f 7443 343d 35c6 903b fd58 f03a
00000240: 37ee 7d3e b4c9 fcbc 9b18 1c3d bc8e e9bc
00000250: ed63 7e3c 6d11 143f 0008 be3b 62f3 d83b
00000260: 3581 8c3c 2d63 c1bc 85e7 0ebb 4eec 803e
00000270: 60d3 25bd 94f0 823d 9ad6 f9bc a04f 8bbc
00000280: bd12 0ebd 47aa 2cbd f81d dbbc b9e9 5dbd
00000290: 642b 06bd 5ef3 c5bc 0c54 aebc 5d3f 8ebe
000002a0: 6f2b 173f 4ce1 c53c b6ae 7c3c ac63 92bb
000002b0: 2ace 0ebd 91bf 7f3b 9578 19bc 0fbc 9c3e
000002c0: efc7 40bb b77e b239 d46c 7d3e b651 323d
000002d0: 6d90 8bba b456 6a3e dc24 62bc 7514 523e
000002e0: b1d7 83bb c6a9 5ebd 3f67 c43c 760f ec3b
000002f0: a3f4 19be bed1 023e c74a 993e 86f1 b63e
00000300: e25c 6d3c 7c30 26bd 9685 16bd f57f 11bd
00000310: 5f8d 163c 973e 9c3e 0ace 803b b015 b6bc
00000320: 35ef 2b3e 602a d6bc ea7e 293e c21e 82bc
00000330: 62e9 643f 071b 053e 8788 21bd 9c3b fb3b
00000340: 1ccc 0abe 4b5b f43d bf37 b03e 3d4a 0fbd
00000350: 0206 22bd d7bc 8dbc a8bf a63b 6248 7b3e
00000360: c2ef e1bd 2528 bb3c d301 d23e 47de 21bd
00000370: c448 933e a027 a1bc 46d4 f4bc 7a7c 283d
00000380: 9f64 f93e de5c c23e 7fde 3a3e 55b2 64ba
00000390: 0386 02bd 30b8 90be 8a8e d23e d41d b43e
000003a0: 4012 bbbc 7b66 0d3e efeb 9f3e c02d e6bc
000003b0: 3bb3 c83e d123 993c ec33 a53e d32d be3c
000003c0: 1e49 bd3e d6ad 993c 0621 513e 49dc 473e
000003d0: 6916 1cbe 16db 293c 28ec d93c 6eec 383a
000003e0: 466b f1bc 73db dcbc 6aac 3ebd 0b1e c73c
000003f0: 8292 e43c 7c61 a73c 60e4 313e f395 943a
-0.064254485 -0.021153891 -0.23966976 -0.03433814 0.55917954 -0.021585887 -0.04361388 0.047593914
0.17278278 0.5585409 0.38764325 0.019109733 0.07320086 -0.2415411 0.26953563 0.2527983
0.3787241 -0.048333053 0.3778438 0.010789657 -0.0015527505 0.28258958 -0.024640577 -0.14070188
-0.03285111 -0.021004952 0.016082771 0.010389946 0.020814866 0.0097175 -0.011677837 0.23045336
-0.032188963 -0.03643693 -0.032103665 -0.01844902 0.71078265 0.13228041 0.005536459 0.19419068
-0.35423052 0.005465565 0.5302846 -0.020465804 0.14750354 0.35325962 0.16146334 -0.031537678
0.35369784 -0.03628144 0.010025548 0.019280156 -0.009819127 0.30423075 -0.032439947 0.008100934
-0.0148460455 0.5837738 -0.03204581 0.36505443 0.5992856 -0.020837352 0.18421875 -0.009091663
0.023283612 0.26850328 0.068853624 0.5978869 -0.012712909 -0.03298514 0.003419057 0.3231915
0.11989012 0.1502596 0.33439234 0.01929418 -0.047497258 -0.012788015 -0.039059207 -0.13324384
-0.027461581 0.37621167 0.015845736 -0.00692049 0.41882133 0.17918715 0.017588343 0.3529232
0.24425851 0.3692071 -0.059111215 0.40516517 -0.1918248 -0.0011113551 -0.17879942 0.4314585
0.55529296 0.45305863 0.37909847 0.015352359 -0.02038681 -0.48811054 -0.16897513 0.5443842
0.09136352 -0.16816989 -0.027417049 0.66586995 0.20560968 -0.030625695 0.5176478 0.23342468
0.004563769 -0.037329543 -0.119330965 0.0041194386 0.0016722713 0.14392535 0.15751225 0.022820948
-0.03069801 0.2252485 0.27194417 -0.03627809 0.3380555 -0.046040427 0.432051 0.38200796
0.58844906 0.18866147 -0.16344771 -0.032403573 0.42322642 -0.31949976 0.12799804 -0.009265873
-0.024835335 0.2587384 0.28628075 0.42475066 0.53830135 0.04400964 0.0044181594 0.0018337067
0.24797903 -0.030857898 0.038109403 -0.028510444 0.015526754 0.5783909 0.0057992935 0.0066208104
0.017151454 -0.023606861 -0.0021805477 0.25180286 -0.040484786 0.06393543 -0.030497838 -0.017005742
-0.03468584 -0.042154577 -0.026747689 -0.054177973 -0.032756224 -0.024163898 -0.021280311 -0.27782717
0.5905065 0.024155281 0.015422514 -0.004467448 -0.034864582 0.0039024095 -0.009367128 0.30612227
-0.0029416045 0.00034045216 0.24748546 0.043534957 -0.0010647901 0.22884637 -0.013802733 0.20515616
-0.004023515 -0.054361127 0.023975013 0.0072039915 -0.15034728 0.12775323 0.29939863 0.35731143
0.014487477 -0.040573582 -0.03674849 -0.03552242 0.009188979 0.30516502 0.003930812 -0.022227138
0.16790469 -0.026143253 0.1655232 -0.015883807 0.89418614 0.12998591 -0.039436843 0.007667018
-0.13554424 0.11931475 0.3441753 -0.03498291 -0.03955651 -0.01730196 0.005088765 0.2453933
-0.11032058 0.02284629 0.41017017 -0.03951862 0.28766453 -0.019672215 -0.029886376 0.041134335
0.4870958 0.37961477 0.18248938 -0.00087240833 -0.031866085 -0.28265524 0.41124374 0.35179007
-0.02283585 0.13808624 0.3123469 -0.028097987 0.39199242 0.018693836 0.32266176 0.02321521
0.36969846 0.01875965 0.20422754 0.19517626 -0.15242924 0.010367176 0.026601866 0.0007054274
-0.029470097 -0.02696011 -0.046551146 0.024306318 0.027901892 0.020432226 0.17372274 0.0011336192

3.weight f4 [128, 256]
00000000: 1352 fcbd dafe 3bbd 2803 f0bd a98b ac3d
00000010: 8074 893d d857 65bc ed43 aabd c5ae ac3b
00000020: 6e3d dabb c636 3e3d 346d d43e 67e0 c93c
00000030: 5d92 b33d b3fd 18be f8ed c13d 2449 943e
00000040: 319c 493e 8229 083d c4f2 713e 6573 bcbc
00000050: 9864 0f3e e272 963d b755 5c3d bc51 06be
00000060: 90ce 4d3d 363a a9bb 543c 373d 91a5 033c
00000070: 7009 10bd f28b 70bd 916a 8abb cc10 ce3e
00000080: ed9f 5bbd 3ad3 e1bc 3bb4 4cbd eb3c 0c3d
00000090: 2cea f43b 8e6a 153d fd4d 303d f7db 1abe
000000a0: 7395 28bd c791 8cbb f8fe 213e 411e 083d
000000b0: 0af6 573d 74a1 6d3d 01a4 b73e 11bf 1cbc
000000c0: 8365 ecbc 327e 4e3d fa54 183d 08ba 96bd
000000d0: 0db0 583d cc51 003e fc7f 34bc 5fc5 163d
000000e0: 3093 3d3d a019 9cbd 77d8 723d 5539 f73d
000000f0: 88d9 043d 601a 503d a9ba 863e 8841 cd3c
00000100: 2141 3fbc 89fc f9bd 1399 b4bb f745 64bc
00000110: 1524 fe3c a4ae 3cbb ea26 10be e766 8bbd
00000120: e526 e4bd c0ee 8a3c 0c10 9bbb 091c 83bc
00000130: 7309 8bbb 46cd 003d d552 5ebd 21ba 0abe
00000140: 7ea8 e8bc 2ea8 41bd c503 073d 2cce 733d
00000150: 48d9 2f3d 981b a83e e77a 1fbb 9e0f 333d
00000160: b574 12be 2ec7 6abe c95c c03d dcd6 89be
00000170: 893a aebd 7023 03bd bdf3 88bd 536b 473e
00000180: 05b7 dcbd 15fe 3f3e 7cba 413d e1d9 e339
00000190: 311c 35bd ad68 95bd 2bd7 4b3e 5089 753c
000001a0: 2a9c d23d 5ef7 59bc 76e5 703d 9cf5 0bbe
000001b0: 47d0 8e3d c83c 6ebc 2894 49be 86e8 0abd
000001c0: 9c06 96bd b8ce 5e3c cda3 bb3e 6629 1b3d
000001d0: 4016 0dbc a0c1 dd3c a468 113d 97d5 2f3c
000001e0: 987f 643d 8370 9ebc 7758 ccbd 22e1 0c3d
000001f0: cbeb 6c3d b6a8 92bd 1456 10bd f6fb 9abc
00000200: cfd5 49bd 5cac 663d 03e1 01be de9f 35bd
00000210: e50d c4bd 4530 c9bd d4f0 823e a0a9 7e3d
00000220: fc19 f2bd 7ff9 c63e 3fe4 51bd 2595 31be
00000230: 67f0 80be 631e 1fbd 128d 953d 7f42 b03b
00000240: 9565 96bd 34a6 f53c 856c 14be cd07 edbc
00000250: e712 36be 0b7e 90ba c706 38bd 91b1 2b3d
00000260: c0be 15bd 20c4 4b3d 10b7 f43c 9ced a7bd
00000270: f4ec 973d 9cee 313e 2464 14ba a85a 203d
00000280: f530 aabb 461b 073d e706 c83c a0bd a0bc
00000290: fadf b83b fec0 b6bc 72b7 5d3d 3175 c4bd
000002a0: 827d 37bd faab c53c 8a2b c9bc 0c82 63bd
000002b0: 309c 883c e012 3cbc ac12 b33c bfc3 babe
000002c0: 675d b3bc c459 9cbc 9f86 423e 906c 1a3f
000002d0: e061 60bc 2c07 40bc 344f 63bd f2b0 863d
000002e0: 31cd 183d a895 1bbd 7c5c 1bbc e6ad 06bd
000002f0: c817 0d3e d9d0 c3be 9ea0 183e 6e1c 803e
00000300: ffba 843c 1d3f 2b3c 08e2 4f3d b247 583d
00000310: fe49 6bbe 1a9f 1bbe c19b 823c 9b52 eb3c
00000320: 4233 ca3c 2ed7 a1bc 4035 d23c 3c46 f4bc
00000330: 61e0 7c3e 99e1 353e 4163 b83c 0b48 4c3c
00000340: 57b3 aabd 9695 003e 7bcd 403e ef05 51bd
00000350: 4826 bebc 88f6 6bbc 9426 8b3d 08d9 55be
00000360: 5dea f5be cd43 10bd dba9 173e 1932 c53a
00000370: 0a33 d43e 353d b63b 9249 133d 7dac 843d
00000380: 518f 45bd d706 febd ef1a 7a3e fed5 aabc
00000390: fd5d 5dbd d9c7 073d 835c 8bbe d996 843d
000003a0: 5552 13bd c6bc cbbd 5f70 ed3d e427 383d
000003b0: 4645 393d 3752 d33d 8c50 1ebd 0a7b 42bd
000003c0: 2a96 b0bd 8464 103d 506d 6bbe 594c 36bd
000003d0: 1cbf 36bd 2871 0d3e 13b1 493c c0cc cd3c
000003e0: 67f3 453c 8fa1 51bb d112 243c d5b6 eb3d
000003f0: 96db 8ebc 5c43 7ebd 710f d3bc c83e 40bb
-0.12320342 -0.045897342 -0.11719352 0.084250756 0.06711674 -0.013997994 -0.08313737 0.0052698576
-0.006660155 0.046438955 0.41489565 0.024643136 0.08768151 -0.14940529 0.09469217 0.28962052
0.19688489 0.03324271 0.23627764 -0.023004243 0.14003217 0.07346131 0.05379268 -0.13117117
0.05024582 -0.00516441 0.044735268 0.00803508 -0.03516525 -0.058727212 -0.0042241295 0.4024719
-0.053619314 -0.027566541 -0.04997657 0.034237783 0.0074742045 0.03647857 0.043043125 -0.15122972
-0.04115815 -0.004289839 0.15819919 0.033231977 0.052724876 0.0580153 0.35867313 -0.009567038
-0.028856998 0.050413318 0.037190415 -0.073597014 0.05290227 0.12531203 -0.011016842 0.03680932
0.046282947 -0.07622075 0.05928847 0.12071482 0.032434016 0.050806403 0.26314285 0.025055662
-0.011673243 -0.122063704 -0.005511412 -0.013932697 0.031023065 -0.0028790617 -0.14077345 -0.068067364
-0.11140231 0.016959548 -0.0047321375 -0.01600458 -0.00424307 0.031445764 -0.054278214 -0.13547565
-0.028400656 -0.04727953 0.03296258 0.059522793 0.042931825 0.32833552 -0.002433473 0.043716066
-0.14302333 -0.22927544 0.09392697 -0.26921737 -0.085072584 -0.032016218 -0.066871144 0.19474535
-0.10777096 0.18749268 0.047296986 0.00043459146 -0.04421634 -0.07295356 0.19906299 0.014986351
0.10283692 -0.013303606 0.05881258 -0.13667911 0.069733195 -0.014540859 -0.19685423 -0.033913158
-0.073254794 0.01359909 0.36648408 0.037881278 -0.008611262 0.027069867 0.035500184 0.010732076
0.055785745 -0.01934076 -0.09977811 0.03439439 0.057842057 -0.07161085 -0.03523834 -0.018918972
-0.04927617 0.05631672 -0.12683491 -0.044341914 -0.09572963 -0.0982366 0.25574362 0.062173486
-0.118213624 0.38862225 -0.051243063 -0.1734205 -0.25183412 -0.03884734 0.07302298 0.0053790207
-0.07343594 0.029986478 -0.14494522 -0.028934384 -0.17780648 -0.0011023892 -0.04492834 0.041917387
-0.036558867 0.049747586 0.029872447 -0.08199617 0.07418242 0.17376179 -0.0005660674 0.039148957
-0.0051938244 0.032984994 0.024417354 -0.01962167 0.0056419345 -0.022308823 0.054130025 -0.09592665
-0.044797428 0.024129856 -0.024556894 -0.055543944 0.016676039 -0.0114791095 0.02185949 -0.36477467
-0.021895124 -0.019085772 0.18996666 0.60321903 -0.01369521 -0.01172046 -0.055495456 0.065767184
0.03730506 -0.03798452 -0.009482499 -0.032880686 0.13778603 -0.38245276 0.1490502 0.2502169
0.016202448 0.010452059 0.05075267 0.05280275 -0.22977445 -0.15197411 0.01594341 0.028725913
0.024682645 -0.019755926 0.025660157 -0.029818647 0.24694969 0.1776184 0.022508265 0.012468348
-0.083349876 0.12557063 0.18828385 -0.05103105 -0.023211613 -0.014402039 0.067944676 -0.20883572
-0.48030367 -0.03522091 0.14810888 0.0015044837 0.4144519 0.0055614957 0.035958834 0.06478212
-0.04823238 -0.12403648 0.24424337 -0.020853993 -0.054044712 0.033149574 -0.27219018 0.064740844
-0.03596719 -0.09948115 0.11593699 0.044959918 0.04523208 0.103184156 -0.038651034 -0.04748062
-0.086223915 0.03525211 -0.22990918 -0.044506405 -0.04461585 0.13812697 0.012310284 0.025122046
0.012081957 -0.0031987166 0.010014252 0.11509482 -0.017438691 -0.062075958 -0.025764199 -0.0029334296

3.bias f4 [128]
00000000: e2c3 253d 313a 98be de44 7e3e f0e4 303e
00000010: ff52 9d3d c656 e23d 109e 93bd 3a5a 02be
00000020: 51f2 353e 8286 b4bd 7240 8f3e c2b6 803e
00000030: b0a5 373e 8c6d 2b3d ebd8 cbbd 7122 603e
00000040: 78fa 83bd 99ff db3c 0b78 2b3d aaae f03d
00000050: 57c3 8dbd b56f a23d d901 24be 0f97 37be
00000060: f890 80bc 71a1 013d 9c44 be3e 0a74 0b3d
00000070: 5745 923e f387 c0bc 662a 0f3e 00fd 6d3e
00000080: 21d0 053d 5e34 ce3e ecc2 09be 4ac4 143e
00000090: af0f 143e d3e7 c13c 9b9d 8c3d b7c3 91bd
000000a0: 8a5f fc3d f74c 403e c761 583e 438c acbd
000000b0: a9d1 abbd 9f33 1d3e 7fb8 823e 4aba d93e
000000c0: d821 df3d 8c8e a33d e1fb 713e a4d6 993d
000000d0: daab 333d 79ac 5a3e be85 843e af38 d23d
000000e0: 2d38 e2bd d87b 263e 6b2a c2bd 1bf4 ee3e
000000f0: a833 82bd be64 9e3d c1a7 753d e3ad b53c
00000100: 70d6 af3e 5012 04bc 4986 b03e 2337 8d3d
00000110: 3a13 41bd a176 f3bb 5c1d cc3a 5566 4c3e
00000120: dad5 a53d f46d 62bd 66f1 a0bd bd3c 783e
00000130: cf93 48be 4c3a ef3c f653 a83e 31ac cfbd
00000140: 4b8b f9bd 1b47 963c ddf2 be3d db15 77be
00000150: 0199 9d3d e664 313e 7d03 49be d5ab 5d3e
00000160: 11f1 003e d831 babd dd3c a0bd 4d40 b6bd
00000170: 4639 7bbd 466f 073d 30f5 343e 71fa 3a3e
00000180: 3ec4 2c3e 116b c0bd ac22 f43d dec9 8139
00000190: b4b7 aabd d027 093e fe4a c5bd 78a2 e73d
000001a0: b32b 083e 2336 813d 95d8 563e 0ba2 e53d
000001b0: 52e2 373e 86b2 1c3e 3321 a23e 3231 d7bd
000001c0: c02a 863e 2480 b93d 22d0 9c3e 8977 b73c
000001d0: 5ad3 f63b 6e08 7abc da5d 3fbd f5c6 17bd
000001e0: ac23 a93d 37dc 833e d291 5eb9 ccc5 d13e
000001f0: ba77 91bd 86e8 dcbd 19ef 5ebd 4246 c83e
0.04047001 -0.29731897 0.24830958 0.17274833 0.07681846 0.11051707 -0.072078824 -0.12729731
0.17768218 -0.08814718 0.27978855 0.25139433 0.17934299 0.04185252 -0.09953483 0.21888138
-0.064442575 0.026855277 0.04186253 0.117520645 -0.06922024 0.07931463 -0.1601633 -0.17928718
-0.015694126 0.031648103 0.3716172 0.03404621 0.28568527 -0.023502326 0.13981017 0.23241043
0.03266919 0.40274328 -0.13453263 0.14528003 0.14459108 0.023670113 0.06865998 -0.07117408
0.1232291 0.1877936 0.21131049 -0.0842519 -0.08389599 0.15351723 0.25531384 0.4252494
0.10895127 0.07986173 0.2363124 0.075116426 0.043865062 0.21354856 0.25883287 0.10264718
-0.11045871 0.1625818 -0.09480747 0.46670613 -0.06357509 0.07734059 0.059974436 0.022177642
0.3434329 -0.008061007 0.3447745 0.06895282 -0.047137477 -0.007429913 0.0015572715 0.19960912
0.080974296 -0.05528064 -0.07858543 0.2424192 -0.19587635 0.029202603 0.32876557 -0.10140265
-0.12184771 0.018344453 0.09323666 -0.24129431 0.07695199 0.17323646 -0.19630237 0.2164758
0.1259196 -0.09091538 -0.07824109 -0.08898983 -0.061333917 0.033065103 0.17671657 0.18259598
0.16871735 -0.09395421 0.11920676 0.000247552 -0.0833582 0.13394094 -0.09633444 0.11310285
0.1329792 0.06309154 0.20981057 0.11212548 0.17957428 0.15302476 0.31665954 -0.1050743
0.2620449 0.09057644 0.30627543 0.022395866 0.0075325193 -0.015260799 -0.046720363 -0.037054975
0.08258757 0.25753948 -0.00021225892 0.4097122 -0.07102914 -0.10786538 -0.05442724 0.39116102

5.weight f4 [10, 128]
00000000: 6247 8fbd c415 70be b659 85bd 95b9 243e
00000010: 3242 cdbe 6519 8ebe 9ee3 733e e83c 24bd
00000020: 053b b4bc 40c2 14be 2960 8fbe 9a97 023d
00000030: 667f f03d c3ec cd3d 0b44 8cbc 1a88 0bbf
00000040: 5380 213e e9ae ebbd c268 9fbe e056 95bf
00000050: 9657 45be 2e18 26bf 67da 57be fad3 e9bc
00000060: ae77 72be 6c1e 563e bb90 0bbd 23dd 4fbf
00000070: b7bc adbe 4b82 33be 3045 72be 4437 95be
00000080: b5b3 1f3e 81bf de3d 64d2 b43d d82d a1be
00000090: edb9 423d f823 adbe 7098 eb3d fc86 403c
000000a0: d803 fdbd c0d4 0b3b 5540 06be 5133 c2bc
000000b0: 66d5 c43c 5d10 97bc e084 843c 6762 6ebf
000000c0: 7229 f8be 0790 753d ca53 22bf f1c4 46bf
000000d0: 64cb 22be 2489 4e3d 6c3c dc3c ced0 993c
000000e0: 9cbe 713d 0a65 36bd a11c 17bd 88a4 653d
000000f0: d9fb bdbd 6b87 72be 1f36 b9be 926f 8dbe
00000100: 134d 8a3d cf06 8cbe 4912 e63d 6962 2f3d
00000110: fe2e 063d 1da2 053d 4f52 893e b884 86bd
00000120: 877b bdbe 255f 543d 4fd5 31bd fc64 cbbe
00000130: 969e 57be c34a 9a3d 2d0a 1abd 6e77 c03c
00000140: bf07 c13c cad9 f2bd fecf 7d3d a701 8fbe
00000150: bb9e 9bbd 9431 053e 2ebe 5bbd 6f70 96be
00000160: e569 d7bd ed6f a2bd fdea ba3c 0976 803a
00000170: 19e0 503c b006 e43c 50bb 6f3d 542c ae3e
00000180: 23ab f53c d25c 2c3c 2326 4cbe 5b37 053e
00000190: 421a 2e3e 83c4 bebe 13c9 d33d a218 023e
000001a0: 7d53 37be d60f 90be 4be6 dc3d 86a5 73be
000001b0: 2ac7 89be 2310 35bd 8bda 80be 8efa 3bbe
000001c0: d024 033d 3fc5 5fbc 6cf7 8e3b add1 0dbe
000001d0: 7bc4 92be 7ed0 d73d 63f1 27be 31fd 9f3d
000001e0: a8e7 00be 0ef6 413c 29b0 a63e 2bb1 3bbf
000001f0: da83 31bd 549c ad3d 0339 dbbe 50be e33d
00000200: 338e 7f3d fc8f a93d 687e 42be 91d4 27bf
00000210: 086a 76bc 83e8 84bc c88c 1b3e 9f8f cdbd
00000220: 278e 49bd e319 a2be 12f1 afbd ac2e 58be
00000230: b7fd 11bf c87b 95bd 1716 3ebe 732f b3be
00000240: 6338 69bf b400 0abf f75e 10bf 92f8 01bf
00000250: 2e5a 1bbe 2ea1 fd3d 0b12 c9be 6621 7bbe
00000260: c556 a4bd 7f15 9dbe 0908 4d3c 8443 b2bf
00000270: 2efb 40be cc37 a73d d818 a2be 3a6b 0fbe
00000280: 2fc7 13bf d88d bdbe c3d9 d13d 75a6 9abe
00000290: d792 6cbe 0ad8 8abf 9972 a1be 93fd 5ebc
000002a0: 3928 a8bb b12c b8be cf22 10bf 04cc 9fbd
000002b0: ad31 89bb 1f51 a8bc 000f d0be 555a 09bf
000002c0: 6ca2 65be c4b8 c0be d893 96be 5ded f5be
000002d0: 797a 2cbf 8e56 283d 226b f6bc b0fd f53b
000002e0: ffe9 dd3c 344e b7be 903f 1e3d 07e1 96be
000002f0: c945 12be b634 93bf 635b 993d 38ae b5bf
00000300: 4e08 8fbe 3583 573e b3bf 5b3b b6f1 7e3e
00000310: 89f0 92be afaf c4be c462 9ebe 5cd6 d63c
00000320: 0772 373e 6816 0fbd 56da c2bd ad75 92bf
00000330: ce7a 59be b3d7 debe b690 90be 7d1d ffbd
00000340: 9907 09be 6d2e 12bf b6e4 4a3b 3d02 1abf
00000350: 5df5 38be d640 b3bd 05d8 82be 033f b8be
00000360: 0c0a 95bf 46c5 46bc 2715 5e3d 2b35 273d
00000370: f589 d2bf 60cb 0fbf bf69 943d 58e0 96be
00000380: 5e77 b0bc fc75 97bd c767 253e b432 72bc
00000390: a815 88be bc8e d8be 4e0b 7bbf cc15 5d3d
000003a0: 4803 35bf a775 30be 7968 70be e64c 133d
000003b0: 0df5 16be ccbc cebe 70a8 cbbe 1d4a f0be
000003c0: b4e4 8abf ee4f b7be fdb6 27bf d71a 36be
000003d0: 1b92 aa3d 93b7 9ebd e19e d8be f214 8dbb
000003e0: 0ec6 1dbd 11c7 083e e373 9d3d daa0 76bf
000003f0: d00c 3b3d 9965 013e 7acb edbd 674f 07bf
-0.06996037 -0.23445803 -0.06511252 0.16086419 -0.40089566 -0.2775375 0.23817298 -0.040097147
-0.022000799 -0.14527225 -0.28003052 0.03188286 0.11743049 0.10054924 -0.01712229 -0.5450455
0.15771608 -0.11507971 -0.3113461 -1.1667137 -0.19271693 -0.64880645 -0.21079408 -0.028543461
-0.23678467 0.20910043 -0.034073573 -0.811968 -0.3393304 -0.17530172 -0.23659205 -0.29143727
0.15595897 0.1087637 0.08829191 -0.31480289 0.047540594 -0.33816504 0.115036845 0.011750933
-0.12354249 0.0021336526 -0.13110478 -0.02370611 0.024027538 -0.01844042 0.016176641 -0.931189
-0.4846912 0.05995181 -0.634091 -0.7764426 -0.158979 0.050423756 0.02688428 0.018776324
0.05901967 -0.044529952 -0.036892537 0.056065112 -0.09276552 -0.2368447 -0.36174104 -0.27624184
0.06752982 -0.27348945 0.11233956 0.04281846 0.03275966 0.032625306 0.2682061 -0.06568283
-0.37008306 0.05184855 -0.043416318 -0.39725482 -0.2105659 0.07533791 -0.03760736 0.023494449
0.023563264 -0.11857946 0.061965935 -0.27930948 -0.07598635 0.13007194 -0.053648166 -0.29382655
-0.10518245 -0.079315044 0.02281713 0.0009800802 0.012748742 0.02783522 0.058528244 0.34018195
0.02998883 0.010520177 -0.19936423 0.13009398 0.17002204 -0.37259302 0.10341086 0.12704709
-0.17902942 -0.28137082 0.107861124 -0.23793611 -0.26909763 -0.044204842 -0.25166735 -0.18357298
0.03201753 -0.013657867 0.004362991 -0.13849516 -0.28665528 0.105378136 -0.16400675 0.07811964
-0.1258837 0.011838449 0.32556275 -0.7331721 -0.043338634 0.08477083 -0.42816934 0.111202836
0.06239147 0.08279416 -0.18993533 -0.65558726 -0.015039928 -0.016224151 0.15190423 -0.10037159
-0.049207833 -0.31660375 -0.085909024 -0.21111554 -0.57027763 -0.07299 -0.18563114 -0.34997138
-0.91101664 -0.5390732 -0.56394905 -0.50769913 -0.1517112 0.12384258 -0.39271578 -0.24524459
-0.080243625 -0.30680463 0.012514123 -1.3926854 -0.18845817 0.08164939 -0.3165958 -0.14005747
-0.57725805 -0.3702228 0.10246613 -0.30205122 -0.2310289 -1.084718 -0.31532744 -0.0136102615
-0.005131748 -0.35971597 -0.56303114 -0.07802585 -0.00418683 -0.020546494 -0.40636444 -0.5365346
-0.2242524 -0.37640965 -0.2940967 -0.48032656 -0.6737438 0.04109817 -0.030080382 0.0075070485
0.027089117 -0.35801852 0.038634837 -0.29468557 -0.14284433 -1.1500461 0.07488134 -1.4193792
-0.27936023 0.21046145 0.003353101 0.24896893 -0.2869914 -0.38415286 -0.30934727 0.026225261
0.17914592 -0.034933478 -0.095143005 -1.1442162 -0.21238253 -0.4352394 -0.28235406 -0.12456796
-0.13381805 -0.5710209 0.0030959076 -0.60159665 -0.18062349 -0.08752601 -0.25555435 -0.35985574
-1.1643691 -0.012131995 0.05421939 0.04082219 -1.6448351 -0.561697 0.07246732 -0.29468036
-0.021541294 -0.073955506 0.16152869 -0.014782596 -0.26579022 -0.42296398 -0.98064125 0.053975865
-0.7070813 -0.17232381 -0.23477353 0.035962008 -0.14741917 -0.40378416 -0.39776945 -0.46931544
-1.0851045 -0.3580317 -0.6551359 -0.17783676 0.08328649 -0.07749858 -0.42308715 -0.0043054754
-0.038518958 0.13357188 0.07688119 -0.9633919 0.045666516 0.12636413 -0.11611076 -0.52855533

5.bias f4 [10]
00000000: 898f 0abe cce4 c4be 24c5 d03d e8fa d43d
00000010: 3d37 0dbe 7457 0bbd eab3 f33d 9e95 4a3e
00000020: 6276 40be 9975 99be
-0.13531317 -0.38455808 0.101938516 0.10399419 -0.13790603 -0.03401895 0.1189955 0.19783637
-0.1879516 -0.29972532
