fashion_sgm/results/fashion_sgm_model_max.pth (torch, 943741 bytes, 6 tensors)

1.weight f4 [256, 784]
0.017635234 -0.0977737 -0.030887522 0.0013929066 -0.49847502 0.0645843 0.8579604 0.6414503
0.07062066 0.20505491 -0.17394502 -0.044026908 0.39364782 0.1458112 -0.042035982 0.16595393
0.30557472 0.19117793 -0.006135004 -0.07406124 0.15165587 0.61639607 0.49743587 0.13193022
0.34297726 0.32297543 0.07766735 -0.11129668 -0.25011918 -0.2998288 -0.3908032 -0.09506613
-0.21728505 0.15442134 0.2577346 0.19105299 0.10370608 0.29419905 -0.17658909 -0.030546078
0.02092506 -0.0007733956 -0.07974704 -0.042825237 -0.11946828 -0.25392428 0.015986886 0.29410002
-0.07856968 -0.1043336 0.3935335 0.34203652 0.47860005 0.44253585 0.038757164 -0.40648526
-0.24089636 -0.17486818 -0.42839935 -0.02227307 -0.18983394 -0.11973452 -0.0320231 0.50838304
0.31746233 0.102944314 -0.18958518 -0.10949529 -0.07816652 -0.12777092 -0.02680936 0.011316138
-0.10206012 0.03309531 0.038368642 0.18236396 0.26408178 0.42866027 -0.23132035 0.12655939
0.33014867 0.57116795 0.08641197 -0.26986182 -0.15593179 -0.22432347 -0.46035895 -0.047192723
-0.33012286 -0.33553022 0.094659135 0.6839285 0.12866215 -0.052602433 -0.14628208 0.009147663
-0.061373066 0.14098616 0.21895723 0.20999832 -0.03996562 0.018115548 0.012834035 0.042218342
0.25765768 0.32144755 0.092683055 -0.36684284 -0.061283763 0.43005708 0.115017734 -0.22220151
-0.16530903 -0.14893252 -0.31054062 -0.048644412 -0.2548909 -0.07648747 0.31936276 0.43203518
0.15600333 -0.15891345 0.03376448 0.37550735 -0.10342529 -0.037659023 -0.045325216 0.059019316
0.11245615 0.1686091 -0.15328749 -0.29783937 0.07851612 0.19092415 0.11298885 0.32174435
-0.4262224 0.3082108 0.3129849 -0.11004847 0.04353217 -0.05347142 -0.28942564 0.17703968
-0.27279672 0.13938792 -0.13370103 0.06481277 -0.09910145 0.006579638 0.2947895 0.41907713
0.23687565 -0.14968787 -0.014086732 0.1829401 0.09556828 0.12438513 -0.07262831 -0.23765086
-0.107381575 0.06920941 0.08647332 0.22593199 0.23658606 0.29737622 0.377314 -0.0005372711
-0.033095364 -0.1355704 -0.3453888 0.22154021 -0.24768215 -0.078763545 -0.30939642 -0.5332711
-0.56136286 0.07473213 0.2976584 0.26431498 0.2290523 -0.21399048 -0.13524719 0.08753134
0.063506745 0.20326988 0.124457836 -0.368808 -0.42175475 -0.38154206 0.13532084 0.12755878
0.21382819 0.23387311 0.42943856 0.15246429 0.0064094663 -0.06942233 -0.27671105 -0.07629173
-0.41847238 -0.09530141 -0.28834733 -0.7734692 -1.0938157 -0.124663316 0.08928012 0.1316733
0.21751854 -0.014655786 -0.06903557 0.15937361 0.15405986 0.13015677 0.056261506 -0.87461245
-1.044606 -0.15926276 -0.13380443 0.034462858 -0.2530318 0.34798944 0.12532945 -0.0060001207
0.10414598 -0.050012384 -0.21180399 -0.10968527 -0.2743895 -0.37465304 -0.7067838 -1.4690102
-1.2254918 -0.33713683 -0.05507794 0.1938469 0.11055434 0.013425472 -0.10789872 0.06390488
0.008878033 -0.079237126 0.010647306 -0.6431319 -1.3537489 -0.72135454 -0.54343283 -0.48194665
-0.45403972 -0.1824301 0.17442611 0.10268605 0.14462852 0.23002213 0.2478586 0.04972545
00000000: c477 903c 943d c8bd d407 fdbc 3192 b63a
00000010: 1e38 ffbe c644 843d 4ba3 5b3f 1636 243f
00000020: 91a1 903d eaf9 513e a51e 32be 8f55 34bd
00000030: 358c c93e 884f 153e ec2d 2cbd d4ef 293e
00000040: 4a74 9c3e 26c4 433e 2508 c9bb 6bad 97bd
00000050: ad4b 1b3e 22cc 1d3f eaaf fe3e b718 073e
00000060: b79a af3e 095d a53e 0f10 9f3d 84ef e3bd
00000070: 9f0f 80be 2983 99be 5b17 c8be 08b2 c2bd
00000080: f97f 5ebe a120 1e3e caf5 833e 65a3 433e
00000090: da63 d43d 42a1 963e c5d3 34be c53b fabc
000000a0: 086b ab3c b3bd 4aba 6b52 a3bd 8469 2fbd
000000b0: c9ab f4bd 5d02 82be eef6 823c 4794 963e
000000c0: 24e9 a0bd dbac d5bd 397d c93e 691f af3e
000000d0: 110b f53e 0f94 e23e d5bf 1e3d d61e d0be
000000e0: 89ad 76be a510 33be 2957 dbbe 0376 b6bc
000000f0: d463 42be 5f37 f5bd a72a 03bd 6425 023f
00000100: 6c8a a23e 78d4 d23d 9e22 42be 113f e0bd
00000110: c515 a0bd 61d6 02be 4e9f dbbc 5367 393c
00000120: e504 d1bd f38e 073d 7028 1d3d 9ebd 3a3e
00000130: ba35 873e 5c79 db3e 3edf 6cbe c998 013e
00000140: 3f09 a93e 1038 123f c2f8 b03d 542b 8abe
00000150: 95ac 1fbe 0db5 65be 2bb4 ebbe 284d 41bd
00000160: dd05 a9be 9eca abbe a6dc c13d f015 2f3f
00000170: 03c0 033e a675 57bd f8ca 15be 14e0 153c
00000180: 5362 7bbd ad5e 103e 5336 603e cd09 573e
00000190: fdb2 23bd 0f67 943c d845 523c 24ed 2c3d
000001a0: b5eb 833e c694 a43e 9dd0 bd3d d3d2 bbbe
000001b0: af04 7bbd 7130 dc3e 6b8e eb3d cb88 63be
000001c0: c546 29be c481 18be 2eff 9ebe 5d3f 47bd
000001d0: 0f81 82be 76a5 9cbd 8483 a33e b733 dd3e
000001e0: 56bf 1f3e 35ba 22be a04c 0a3d 8042 c03e
000001f0: a3d0 d3bd 5940 1abd efa6 39bd 3dbe 713d
00000200: 694f e63d dda7 2c3e 65f7 1cbe 677e 98be
00000210: 0fcd a03d 9f81 433e b366 e73d adbb a43e
00000220: d339 dabe cecd 9d3e 8f3f a03e 1861 e1bd
00000230: ca4e 323d d904 5bbd 992f 94be e449 353e
00000240: 03ac 8bbe b5bb 0e3e ece8 08be 8fbc 843d
00000250: b3f5 cabd 019a d73b a6ee 963e 4791 d63e
00000260: 888f 723e c747 19be 09cc 66bc a654 3b3e
00000270: 4db9 c33d a2bd fe3d 27be 94bd bf5a 73be
00000280: dfea dbbd aabd 8d3d ed18 b13d b75a 673e
00000290: 9e43 723e b241 983e 4d2f c13e a7d7 0cba
000002a0: 018f 07bd f8d2 0abe cdd6 b0be 70db 623e
000002b0: 64a0 7dbe c84e a1bd 3569 9ebe 7484 08bf
000002c0: 7ab5 0fbf 290d 993d af66 983e 4b54 873e
000002d0: b08c 6a3e 5220 5bbe 3d7e 0abe a243 b33d
000002e0: d30f 823d fb25 503e c0e3 fe3d 67d4 bcbe
000002f0: 3df0 d7be 7b59 c3be 8c91 0a3e c59e 023e
00000300: c7f5 5a3e 6f7c 6f3e 5fdf db3e 991f 1c3e
00000310: 8006 d23b 4b2d 8ebd 12ad 8dbe d73e 9cbd
00000320: 0342 d6be 632d c3bd 43a2 93be 1402 46bf
00000330: 2702 8cbf 7b4f ffbd 7fd8 b63d 5ed5 063e
00000340: 2ebd 5e3e d21e 70bc 8562 8dbd d632 233e
00000350: dec1 1d3e d147 053e 7772 663d 9ae6 5fbf
00000360: a6b5 85bf c715 23be 0704 09be ed28 0d3d
00000370: 628d 81be ac2b b23e 5d56 003e a99c c4bb
00000380: 7d4a d53d c9d9 4cbd 25e3 58be aca2 e0bd
00000390: c87c 8cbe 86d2 bfbe c8ef 34bf 8708 bcbf
000003a0: eadc 9cbf 339d acbe 6899 61bd cd7f 463e
000003b0: 506a e23d 83f6 5b3c 01fa dcbd 90e0 823d
000003c0: 2b75 113c 1347 a2bd 0a72 2e3c 4ba4 24bf
000003d0: a547 adbf b1aa 38bf 6a1e 0bbf b6c1 f6be
000003e0: e577 e8be f5ce 3abe c29c 323e 104d d23d
000003f0: 8019 143e ec8a 6b3e a5ce 7d3e eaac 4b3d

1.bias f4 [256]
0.39756355 0.09876176 -0.35219252 7.874636e-05 -0.09929739 0.9962017 0.48682627 0.5542748
0.02468452 0.023522874 0.382842 -0.018174311 0.52400166 0.39357936 0.016588775 -0.011692944
-0.019013269 0.01303145 -0.015406386 0.31344515 0.02839647 0.24141918 0.07092047 0.5718672
0.12925881 -0.091702335 0.2519355 0.18060821 0.27009034 0.7632494 0.002377703 -0.035582505
-0.035047848 -0.011546629 0.80593026 -0.03743738 0.13477798 0.47774005 -0.033758655 0.45015582
0.25170386 0.16197328 0.47354317 0.31181663 -0.021133246 0.18804884 0.18895143 -0.006892541
0.7603733 -0.040979203 -0.0026121566 0.13559447 0.25798327 -0.0006102812 -0.011808603 -0.016685355
-0.016086197 0.2743 0.32894236 0.26489794 -0.026106937 -0.031413272 0.2971088 0.0831419
0.15376627 0.58024466 0.26191106 -0.054656763 0.450446 0.23477787 -0.13185443 0.25492957
0.00721705 0.67051476 0.012837283 0.2525396 0.09695993 0.24331418 -0.023912694 0.22822332
0.29188994 -0.034035567 0.551049 -0.13134898 0.04296636 0.46113962 -0.021761866 0.23077478
0.5795352 -0.03820911 0.00018828428 -0.05174195 0.17413168 -0.032093883 0.105961315 -0.02745129
-0.08915761 0.02705316 -0.39035714 -0.038406014 0.17942226 0.025209116 -0.0044658966 0.31903595
-0.0031833565 0.37495184 0.3259837 0.28942508 0.0018012606 -0.03382137 0.66286206 0.032707166
0.39689055 -0.023768203 0.34281892 -0.43875462 -0.0038100618 0.21937995 -0.03060932 0.11664349
0.3988025 -0.04830895 0.23507963 -0.030730423 -0.25412312 -0.09990385 -0.029720036 -0.034020815
-0.034216993 0.48158652 -0.012160408 -0.030953016 -0.18922935 0.06270377 0.07820876 0.13397297
0.017946899 -0.1790084 0.44687775 0.05411983 0.57077193 0.27229688 -0.0018956531 -0.041372422
0.30682656 0.29040977 0.005948273 -0.13874331 0.007331122 -0.012532791 0.3114409 0.7024142
0.030050091 0.015405391 -0.07045257 0.3839073 -0.04516065 -0.2774265 -0.023628341 0.0077393823
0.0065061357 0.08812964 0.34209818 -0.054557767 0.23875654 -0.09543411 -0.037367772 0.2906948
0.17059384 -0.13964638 0.037761368 0.622424 -0.04219881 0.029250823 0.32787567 0.54163796
0.002243311 0.29532284 -0.0034931607 -0.011473052 0.59466565 0.06456623 0.12150986 1.3920037
-0.07076805 -0.3062888 0.38034123 0.021075662 -0.031979587 -0.22478151 0.20627312 -0.25383243
0.2766269 0.1248999 -0.021890962 -0.4652195 0.3696432 -0.038499165 -0.18492332 0.0019468634
0.59441507 0.25753278 0.39155057 -0.023268592 -0.40031925 -0.15278167 0.01256793 -0.044537205
0.019250747 -0.01510538 -0.006866197 0.014159603 -0.011786036 -0.027944177 0.0073343297 0.0149937
0.33043057 0.5138369 -0.044853665 -0.016313635 0.3396669 -0.09950698 0.01831365 0.23429933
-0.008618776 0.0033527417 0.36365512 0.022335906 0.008857575 0.009452802 0.09079293 -0.02123209
0.17782219 0.71492887 -0.0058412803 0.2107701 -0.039432038 -0.0018230045 0.3150049 0.5178568
0.27921322 0.026324403 -0.012784061 -0.44194287 -0.01003632 -0.21493104 -0.00954959 0.23009561
-0.008460361 0.24625036 -0.11796087 0.16261673 0.36607796 -0.03212488 -0.3117235 0.27436402
00000000: 738d cb3e 9b43 ca3d 9452 b4be a124 a538
00000010: 6e5c cbbd 1307 7f3f 4b41 f93e f4e4 0d3f
00000020: 3137 ca3c 0bb3 c03c de03 c43e 4be2 94bc
00000030: f924 063f 3c83 c93e 2fe5 873c c393 3fbc
00000040: b7c1 9bbc dd81 553c 116b 7cbc e27b a03e
00000050: b79f e83c 9736 773e c03e 913d e465 123f
00000060: 6c5c 043e 6fce bbbd b1fd 803e 5cf1 383e
00000070: 4849 8a3e 5064 433f 3dd3 1b3b f6be 11bd
00000080: 558e 0fbd 122e 3dbc 7251 4e3f f057 19bd
00000090: 3d03 0a3e 589a f43e 8446 0abd d37a e63e
000000a0: 54df 803e 53dc 253e 4074 f23e 6ea6 9f3e
000000b0: a11f adbc e08f 403e 7c7c 413e d3da e1bb
000000c0: d3a7 423f cfd9 27bd b730 2bbb 47d9 0a3e
000000d0: 6216 843e 47fb 1fba df78 41bc baaf 88bc
000000e0: 33c7 83bc 0d71 8c3e 226b a83e b4a0 873e
000000f0: 37de d5bc 34ab 00bd a51e 983e 4d46 aa3d
00000100: e874 1d3e ea8a 143f 3519 863e c5df 5fbd
00000110: dca0 e63e 9c69 703e d904 07be 2186 823e
00000120: 017d ec3b dba6 2b3f 7853 523c df4c 813e
00000130: ee92 c63d 5a27 793e 8ee4 c3bc 60b3 693e
00000140: 9972 953e e168 0bbd 8c11 0d3f 5980 06be
00000150: 7efd 2f3d 7e1a ec3e f145 b2bc 3950 6c3e
00000160: 6b5c 143f 2881 1cbd 2d6e 4539 5eef 53bd
00000170: 934f 323e e074 03bd 3f02 d93d 87e1 e0bc
00000180: 4498 b6bd 979e dd3c e4dc c7be a04f 1dbd
00000190: 78ba 373e 5983 ce3c a856 92bb ae58 a33e
000001a0: dc9f 50bb b0f9 bf3e 56e7 a63e 862f 943e
000001b0: 4718 ec3a 4788 0abd 54b1 293f f3f7 053d
000001c0: 3d35 cb3e 89b5 c2bc f685 af3e 72a4 e0be
000001d0: 3bb2 79bb 23a5 603e 66c0 fabc c8e2 ee3d
000001e0: d72f cc3e 9bdf 45bd b7b8 703e 5ebe fbbc
000001f0: 6d1c 82be 649a ccbd 6f77 f3bc 6959 0bbd
00000200: 1e27 0cbd 8292 f63e 733c 47bc 2e91 fdbc
00000210: 57c5 41be d66a 803d ea2b a03d 3630 093e
00000220: 6005 933c fa4d 37be 29cd e43e c1ac 5d3d
00000230: 1c1e 123f 7f6a 8b3e 9077 f8ba 2176 29bd
00000240: 5f18 9d3e 97b0 943e bbe9 c23b ba12 0ebe
00000250: e939 f03b 5656 4dbc 2f75 9f3e 6bd1 333f
00000260: 9c2b f63c e566 7c3c 7049 90bd 7f8f c43e
00000270: 60fa 38bd d90a 8ebe 3990 c1bc a59a fd3b
00000280: 6c31 d53b 507d b43d 7e27 af3e f777 5fbd
00000290: 987c 743e f572 c3bd f30e 19bd f3d5 943e
000002a0: 27b0 2e3e 76ff 0ebe aaab 1a3d 2e57 1f3f
000002b0: a9d8 2cbd 6c9f ef3c 52df a73e c9a8 0a3f
000002c0: 8304 133b 8e34 973e 83ed 64bb 78f9 3bbc
000002d0: 023c 183f 4d3b 843d 29da f83d 2d2d b23f
000002e0: d7ee 90bd e3d1 9cbe 16bc c23e dea6 ac3c
000002f0: 07fd 02bd 202d 66be 4339 533e 53f6 81be
00000300: 0ba2 8d3e 85cb ff3d ad54 b3bc 4031 eebe
00000310: e041 bd3e 4db1 1dbd 8a5c 3dbe e52d ff3a
00000320: 962b 183f 56db 833e 5179 c83e c69d bebc
00000330: a5f6 ccbe cc72 1cbe b8e9 4d3c a56c 36bd
00000340: beb3 9d3c 8e7c 77bc d6fd e0bb aefd 673c
00000350: 381a 41bc 30eb e4bc d154 f03b 23a8 753c
00000360: 322e a93e d18a 033f 7ab8 37bd 2ca4 85bc
00000370: d2e8 ad3e 51ca cbbd 8206 963c 2aec 6f3e
00000380: c435 0dbc acb9 5b3b 0131 ba3e caf9 b63c
00000390: 5d1f 113c eddf 1a3c a5f1 b93d ecee adbc
000003a0: 0517 363e 9405 373f 3668 bfbb 1ed4 573e
000003b0: 7d83 21bd e1f1 eeba 5248 a13e 4392 043f
000003c0: 09f5 8e3e 46a6 d73c 3d74 51bc 5646 e2be
000003d0: 616f 24bc e216 5cbe e275 1cbc 2f9e 6b3e
000003e0: 539d 0abc 0e29 7c3e 7895 f1bd 0085 263e
000003f0: 926e bb3e 6195 03bd 399a 9fbe 7179 8c3e

3.weight f4 [128, 256]
-0.3045854 0.43753713 0.16303045 0.03188835 0.018663412 -0.011937318 0.14812163 -0.027564824
-0.024113154 0.016558202 -0.030030891 -0.04331596 0.14676763 0.38628122 0.016379336 -0.097984105
0.009483386 -0.05653485 0.014613611 -0.20130567 -0.05428805 -0.05364923 0.05808496 -0.15117294
-0.032305285 0.035762254 0.16263016 -0.17020826 0.15445523 -0.31500274 -0.037316285 -0.056427594
-0.018476065 0.027377434 -0.038254756 0.04353707 -0.26637927 0.28417656 0.025828047 0.025170954
-0.004236783 0.19041756 -0.04472718 0.15108475 -0.010741757 0.13205537 -0.21693516 0.027659303
0.0114142 0.020781144 0.028093034 0.02953501 -0.3824561 0.0049291463 0.052452717 -0.14004554
0.027568681 -0.32537776 -0.3258424 0.03889442 -0.0047357297 -0.05312112 -0.06618495 0.1579853
-0.16294035 -0.09020769 -0.18381822 -0.10218739 0.09064288 0.02838464 0.05982748 -0.032503888
-0.047050156 0.35119393 0.052834034 -0.08055749 0.36289662 -0.10116772 0.02981857 -0.31752077
-0.09061148 0.011712802 0.041020993 -0.5844169 0.009462308 0.2609841 0.12827541 0.4348619
-0.15464987 0.23315135 0.048195973 0.042757366 0.19506292 0.047512215 -0.041703418 0.031013273
-0.21122187 -0.0056239017 -0.19083734 -0.032122962 0.18320632 -0.026832843 -0.038892362 0.015152013
-0.046376582 -0.3704607 0.0385801 0.11532257 -0.05243997 0.0157111 0.21339266 -0.19848138
0.09522883 -0.05155753 0.008247264 0.02783879 0.14216088 -0.19222428 0.055285133 -0.033675574
0.17596371 0.042678174 -0.2532277 -0.002008153 -0.14491408 -0.037758037 0.04456754 -0.05130234
-0.053062703 0.18252899 -0.32831836 -0.04033613 -0.050810307 -0.079348505 0.058319677 -0.16953288
-0.036057647 -0.43348747 -0.056706496 -0.26923597 0.016489567 0.14608002 -0.03541117 0.015918223
-0.2457126 0.30405974 -0.03895636 -0.14446557 0.03504886 0.019556738 -0.29448235 -0.45553258
0.032873712 0.058361232 -0.01571509 0.3289973 -0.14623393 -0.30785662 -0.037995744 -0.009803222
-0.0017892602 -0.08856946 0.284261 0.03097694 -0.46431652 0.0050204983 0.00051421596 -0.29875454
0.20860563 -0.023325955 -0.3715643 0.103914976 -0.042345937 -0.23459475 0.23265614 0.18320988
0.0066935094 -0.44088864 -0.4008776 -0.038591858 0.08456285 0.27462682 0.111160606 -0.060483206
-0.06678908 0.23372701 0.184256 0.058492187 -0.00401406 0.02499496 -0.26317772 -0.41656378
0.3514166 -0.20414922 0.048084326 -0.42836788 -0.23461437 -0.015951976 -0.22527243 0.044830482
-0.27595606 0.028500792 0.14512281 0.012274355 0.19409262 0.10765225 0.06762993 -0.029319838
0.044734456 0.045395907 0.026347106 0.01344883 0.043443583 0.007120044 0.004126623 -0.50457686
-0.22453438 0.027317997 0.058297813 0.06550029 -0.14282705 0.16154523 0.42002872 0.030421972
-0.04710848 -0.041472927 -0.07309548 0.12676555 -0.04803245 0.024085324 0.3682201 -0.044853542
-0.017131733 0.18589413 -0.05328907 -0.23698625 0.045229185 -0.043810286 0.00032516397 0.08801039
-0.055914816 0.33156404 0.03646035 0.12212662 0.03316056 0.02075927 -0.0029973383 -0.04463174
-0.002689399 -0.4202396 0.4101421 -0.17503367 -0.15365818 0.006172331 -0.08776098 -0.011460149
00000000: 9ef2 9bbe de04 e03e 74f1 263e 5c9d 023d
00000010: 03e4 983c be94 43bc 32ad 173e a0cf e1bc
00000020: f388 c5bc 11a5 873c 5803 f6bc 136c 31bd
00000030: 414a 163e a7c6 c53e f52d 863c e4ab c8bd
00000040: 3460 1b3c 1691 67bd ed6d 6f3c 1323 4ebe
00000050: 255d 5ebd 4cbf 5bbd 7fea 6d3d 14cd 1abe
00000060: 8c52 04bd 717b 123d 8588 263e 134b 2ebe
00000070: 8329 1e3e 0a48 a1be f6d8 18bd 9f20 67bd
00000080: 1e5b 97bc a446 e03c 05b1 1cbd ed53 323d
00000090: dd62 88be 977f 913e 5795 d33c 5133 ce3c
000000a0: b6d4 8abb d2fc 423e d933 37bd f6b5 1a3e
000000b0: 32fe 2fbc 8639 073e 4024 5ebe c395 e23c
000000c0: a002 3b3c 383d aa3c 5d23 e63c 68f3 f13c
000000d0: 49d1 c3be ad84 a13b a9d8 563d 1968 0fbe
000000e0: b7d7 e13c ea97 a6be d1d4 a6be c14f 1f3d
000000f0: 2e2e 9bbb 8895 59bd fa8b 87bd e6c6 213e
00000100: d6d9 26be cfbe b8bd d83a 3cbe 9f47 d1bd
00000110: f9a2 b93d e886 e83c a90d 753d cc22 05bd
00000120: aab7 40bd b1cf b33e 8068 583d 53fb a4bd
00000130: 96cd b93e 0631 cfbd 1346 f43c 1592 a2be
00000140: 8392 b9bd 0de7 3f3c a105 283d 599c 15bf
00000150: cc07 1b3c b59f 853e a15a 033e 38a6 de3e
00000160: 895c 1ebe 3abf 6e3e 2469 453d 5922 2f3d
00000170: 93be 473e 2b9c 423d 34d1 2abd 8c0f fe3c
00000180: 8c4a 58be b548 b8bb dd6a 43be 5e93 03bd
00000190: 709a 3b3e 8dd0 dbbc 994d 1fbd 2640 783c
000001a0: 5ff5 3dbd 06ad bdbe 2b06 1e3d 3d2e ec3d
000001b0: 4bcb 56bd 91b4 803c 9b83 5a3e b43e 4bbe
000001c0: 5507 c33d fd2d 53bd 881f 073c 2d0e e43c
000001d0: 9f92 113e 71d6 44be aa72 623d 66ef 09bd
000001e0: d52f 343e 4fcf 2e3d 10a7 81be 379b 03bb
000001f0: 5b64 14be 2ca8 1abd 748c 363d 6722 52bd
00000200: 4758 59bd e1e8 3a3e 5819 a8be 7f37 25bd
00000210: 781e 50bd 7881 a2bd 9de0 6e3d 079a 2dbe
00000220: 2fb1 13bd 12f2 ddbe 1245 68bd 4cd9 89be
00000230: 2115 873c 0096 153e 4e0b 11bd ef66 823c
00000240: 159c 7bbe b8ad 9b3e b490 1fbd c8ee 13be
00000250: 658f 0f3d 7435 a03c 64c6 96be 913b e9be
00000260: 96a6 063d 300c 6f3d efbc 80bc 5672 a83e
00000270: 59be 15be 629f 9dbe 6da1 1bbd b19d 20bc
00000280: 9c85 eaba e863 b5bd a88a 913e 5ac3 fd3c
00000290: e5ba edbe fe82 a43b 73cc 063a 5bf6 98be
000002a0: b79c 553e 1316 bfbc ad3d bebe 60d1 d43d
000002b0: ef72 2dbd 9b39 70be 693d 6e3e 5f9b 3b3e
000002c0: 3a55 db3b 28bc e1be d43f cdbe 7f12 1ebd
000002d0: 4a2f ad3d e39b 8c3e 2ca8 e33d 3dbd 77bd
000002e0: b7c8 88bd 2256 6f3e 9bad 3c3e 8195 6f3d
000002f0: 6088 83bb 3bc2 cc3c 3bbf 86be d947 d5be
00000300: e0ec b33e 7e0c 51be 12f4 443d 0953 dbbe
00000310: c03e 70be b8ad 82bc d1ad 66be 2ba0 373d
00000320: 1d4a 8dbe 7e7a e93c 139b 143e 601a 493c
00000330: 37c0 463e c878 dc3d 9081 8a3d 2830 f0bc
00000340: 7a3b 373d 0ff1 393d e3d5 d73c 7b58 5c3c
00000350: e6f1 313d 424f e93b 9f38 873b f32b 01bf
00000360: 57ec 65be fec9 df3c b0c9 6e3d 0425 863d
00000370: 4141 12be 1d6c 253e 010e d73e 8037 f93c
00000380: d2f4 40bd 84df 29bd 15b3 95bd d4ce 013e
00000390: adbd 44bd 964e c53c 5887 bc3e 59b8 37bd
000003a0: d957 8cbc 085b 3e3e a445 5abd 86ac 72be
000003b0: 3d42 393d 6a72 33bd c57a aa39 cb3e b43d
000003c0: ef06 65bd c3c2 a93e 7357 153d 851d fa3d
000003d0: 5ed3 073d 580f aa3c fe6e 44bb c5cf 36bd
000003e0: a140 30bb a529 d7be 25fe d13e 073c 33be
000003f0: 9258 1dbe 4441 ca3b 07bc b3bd 59c3 3bbc

3.bias f4 [128]
0.08648627 0.301825 0.0471375 0.3023187 -0.24373876 0.31338015 -0.21297932 0.07714107
0.11141657 0.156895 0.14203577 -0.08601152 0.365797 -0.081094466 -0.015873885 0.5348535
0.06648156 -0.11834251 0.15332884 0.20657432 -0.3471753 0.45793518 0.27602014 0.21385555
-0.15724117 0.36930886 0.20594895 0.4219333 -0.13916023 -0.09071283 0.58657515 -0.117403105
0.41394988 0.23775704 0.16643947 0.35387102 -0.39568642 0.07750964 0.2466465 0.42680952
0.033290457 0.1291504 0.025034929 0.0680374 0.6130893 -0.006512083 0.29291075 -0.023705551
0.3183832 0.23250249 -0.16580601 0.298993 0.27945834 0.15631962 0.26711443 -0.113537066
-0.0072373706 0.20833084 0.036165603 0.22487988 -0.017556595 0.22109406 0.2870885 -0.19136469
-0.07357068 -0.07102439 -0.22092812 -0.092203155 0.13521051 -0.11098733 0.07370207 -0.123962015
0.16334817 -0.23455244 0.18287596 0.02637945 0.4766459 0.02511306 -0.1167942 0.19973958
-0.11919576 0.4093574 0.35304487 0.14845641 -0.16177459 0.10441548 -0.03572625 0.0068380795
0.09779393 -0.08218905 0.05270613 0.10159495 0.10329455 0.08967505 -0.2499556 0.05822093
0.13528526 -0.09617226 0.09390923 0.35076016 -0.09904302 0.20170647 0.16307302 0.21398388
0.10378311 0.38007587 -0.009010114 -0.045905527 0.016967079 0.29074684 0.4635612 0.21209079
0.04107714 -0.037400078 -0.1775962 0.50465965 0.38023093 0.015879225 0.20827015 0.34065798
-0.013246727 0.06590675 0.025611933 -5.3309646e-05 0.27045354 -0.09704816 0.08611335 -0.2644153
00000000: b71f b13d ce88 9a3e 4013 413d 84c9 9a3e
00000010: a796 79be 5d73 a03e 4017 5abe 23fc 9d3d
00000020: 5f2e e43d 15a9 203e d371 113e cf26 b0bd
00000030: bf49 bb3e db14 a6bd f309 82bc 29ec 083f
00000040: 7c27 883d 8f5d f2bd 3c02 1d3e 3888 533e
00000050: f6c0 b1be 7b76 ea3e 8352 8d3e f3fc 5a3e
00000060: d403 21be 0d16 bd3e 48e4 523e a407 d83e
00000070: 0580 0ebe a6c7 b9bd ca29 163f 0a71 f0bd
00000080: 3df1 d33e 9576 733e 1c6f 2a3e 952e b53e
00000090: 6997 cabe 60bd 9e3d e690 7c3e c786 da3e
000000a0: 935b 083d 0140 043e 0d16 cd3c 3157 8b3d
000000b0: 6cf3 1c3f 5063 d5bb 66f8 953e 2532 c2bc
000000c0: 1f03 a33e 2215 6e3e 0dc9 29be 9c15 993e
000000d0: 2a15 8f3e 4012 203e 39c3 883e 1f86 e8bd
000000e0: 7727 edbb ae54 553e 6222 143d e946 663e
000000f0: d9d2 8fbc 7b66 623e 44fd 923e 1bf5 43be
00000100: 3aac 96bd 3c75 91bd fb3a 62be 02d5 bcbd
00000110: a074 0a3e 534d e3bd 1cf1 963d ccdf fdbd
00000120: be44 273e 842e 70be d643 3b3e b719 d83c
00000130: ee0a f43e e7b9 cd3c cc31 efbd 8888 4c3e
00000140: e81c f4bd 4b97 d13e 4cc2 b43e f504 183e
00000150: 3da8 25be c8d7 d53d b055 12bd f811 e03b
00000160: 2f48 c83d bc52 a8bd 62e2 573d 0311 d03d
00000170: 188c d33d 8da7 b73d 5cf4 7fbe 1279 6e3d
00000180: 3888 0a3e f6f5 c4bd 7b53 c03d d696 b33e
00000190: 11d7 cabd 248c 4e3e 9dfc 263e 971e 5b3e
000001a0: 3d8c d43d 4e99 c23e 289f 13bc 6f07 3cbd
000001b0: 8bfe 8a3c c5dc 943e e557 ed3e 542e 593e
000001c0: 8140 283d d330 19bd c7db 35be 6031 013f
000001d0: a1ad c23e 2615 823c c544 553e b96a ae3e
000001e0: cd08 59bc 1efa 863d 1ed0 d13c cc98 5fb8
000001f0: e378 8a3e 30c1 c6bd 325c b03d 7161 87be

5.weight f4 [10, 128]
-0.34362036 -0.83769506 -0.13238356 0.06720229 -0.25216106 -0.43162856 -0.1978495 -0.631813
-0.49523637 0.13958204 -0.8674129 0.21841244 0.12522948 -0.5283546 -0.6692661 -1.1333611
-0.24013004 -0.3827808 -0.064028054 -0.8677675 0.055866 -0.3372902 -0.44595724 -0.68191206
0.23521045 -0.5728287 0.051385764 -0.886847 -0.44185194 -0.48134613 -0.99075717 -0.7290065
-0.18549185 0.045439832 -0.30272043 0.20592602 -0.4354298 0.04222494 -0.18241559 -1.2421302
0.17673881 0.106526315 -0.027570894 -0.1108519 0.0680513 0.41070518 -0.08008264 -0.34794828
0.06513312 -0.7965339 0.032566234 -0.05004769 0.024114573 -0.10717335 -0.08054139 -0.5537244
-0.45036253 0.0066933045 -0.21719855 -0.31219178 0.03691964 -0.056579985 -0.14737077 -0.09392446
0.023205906 0.11176747 0.18762966 -0.08099217 0.039754134 -0.11267583 -0.2955168 -0.047655124
0.20225646 0.2550188 0.06784033 -0.301861 0.09110049 -0.6234252 0.15856394 -0.47965094
-0.0384401 0.07399052 -1.1605078 0.1373514 0.046538416 -0.108275734 0.07823664 0.41620144
0.0025771372 0.20398255 -0.45665306 -0.16857028 -0.72158056 0.28531978 -0.03541629 -0.12950888
0.3375549 0.16149503 -0.028546968 -0.13785607 -0.012820111 0.058956023 -0.2552093 -0.8276488
-0.18198116 0.055855636 0.009436822 -0.30009258 0.010244201 -0.29133072 0.08990558 -0.53146994
0.0317251 0.12823914 0.13599902 -0.11626955 0.10220433 -0.057614792 -1.1157601 0.13702619
0.45367557 -0.25203976 0.006937142 -0.023979807 0.290872 -0.1477297 0.04958922 -0.055784736
0.11602055 -0.3727446 -0.7020138 0.044782415 -0.6098258 -1.8750687 -0.21225026 -0.16320886
-0.6580527 -0.24917728 -0.9644455 0.21882722 0.04700423 -0.63076115 -0.19572505 -0.39605036
-0.24836075 -0.25462586 0.042658344 0.04293973 -0.61668855 -0.6365001 0.1118684 0.38961694
0.15040441 0.12032135 -1.0032283 -0.023966253 0.05511561 -0.6768344 -0.56145364 -0.24859674
-0.19067937 -0.37132695 -0.14440942 -0.81158906 -0.66885483 -0.08805661 -0.6501928 -0.6671798
-0.10523046 -0.14527501 -0.39161864 0.10443955 -0.63961375 -0.45158225 -0.1812081 -0.22363444
0.04348519 -0.22124973 0.016598746 0.07061969 0.022134585 0.22406438 -0.10136323 0.2775989
-0.14434853 -0.3650696 0.020420218 0.0129910195 -0.015332916 -0.72120315 -0.06793666 -0.23975793
0.041125912 -0.023253642 -0.071451224 -0.010551702 0.08967395 0.012600882 0.19001575 -0.06199302
0.034253128 -0.42934048 0.1107684 -0.22078517 -0.3866651 0.0880715 -0.17655551 -0.16783738
0.047204364 -0.38773835 -0.5200165 0.08228687 -0.27209982 0.15609206 -1.0822716 -0.1825452
-0.06658142 0.13575557 0.008162854 -0.10392082 -0.043989122 -0.0034637456 0.0031932225 -0.33384198
-0.17725195 0.20354168 -0.56347156 0.15316005 -0.8159268 0.0067489487 -0.49091825 -0.93339777
-0.18379988 -1.0256184 -0.38010895 -0.4899162 -0.17756835 -0.0051693064 -0.3564706 -0.2100966
-0.38493595 -0.3348148 0.021517338 -0.8507425 -0.36817554 0.00074046425 -0.77735335 0.051576458
-0.39732027 -0.65458375 -0.72887105 0.14120509 -0.24734138 -0.24981435 -0.34940428 -0.75152844
00000000: 02ef afbe 2f73 56bf 8e8f 07be 5ba1 893d
00000010: 411b 81be 6bfe dcbe 0f99 4abe 7fbe 21bf
00000020: 9f8f fdbe 98ee 0e3e c60e 5ebf 83a7 5f3e
00000030: 283c 003e 3f42 07bf 0655 2bbf fa11 91bf
00000040: a6e4 75be d8fb c3be 2421 83bd 0326 5ebf
00000050: bfd3 643d 4db1 acbe 8254 e4be ca91 2ebf
00000060: 02db 703e e7a4 12bf e179 523d 6808 63bf
00000070: 6b3a e2be 0073 f6be 43a2 7dbf 2ca0 3abf
00000080: 93f1 3dbe 1e1f 3a3d 2cfe 9abe 45de 523e
00000090: a8f0 debe 0ff4 2c3d 27cb 3abe 1ffe 9ebf
000000a0: 05fb 343e 782a da3d 5bdc e1bc 5206 e3bd
000000b0: 7b5e 8b3d f347 d23e 5e02 a4bd 4726 b2be
000000c0: 8364 853d a5e9 4bbf 2c64 053d cefe 4cbd
000000d0: ed8b c53c b47d dbbd e2f2 a4bd e2c0 0dbf
000000e0: eb95 e6be 8253 db3b 4c69 5ebe 9ad7 9fbe
000000f0: 0c39 173d 6ac0 67bd 5de8 16be 785b c0bd
00000100: 501a be3c 58e6 e43d fd21 403e 39df a5bd
00000110: 3bd5 223d 96c2 e6bd fa4d 97be 0532 43bd
00000120: 511c 4f3e d391 823e dfef 8a3d 868d 9abe
00000130: e592 ba3d cb98 1fbf 965e 223e cf94 f5be
00000140: 5e73 1dbd 5788 973d 858b 94bf d8a5 0c3e
00000150: 119f 3e3d abbf ddbd 883a a03d 5b18 d53e
00000160: 30e5 283b cde0 503e 6ece e9be b09d 2cbe
00000170: 81b9 38bf 6f15 923e ac10 11bd fa9d 04be
00000180: ffd3 ac3e f45e 253e 55db e9bc 242a 0dbe
00000190: 710b 52bc df7b 713d cbaa 82be cbe0 53bf
000001a0: 4559 3abe e1c8 643d e69c 1a3c bca5 99be
000001b0: 4bd7 273c 4d29 95be 6b20 b83d 6a0e 08bf
000001c0: 2ef2 013d 1f51 033e 5443 0b3e bb1e eebd
000001d0: 8150 d13d 7dfd 6bbd 3ad1 8ebf 9850 0c3e
000001e0: 2a48 e83e 5b0b 81be f750 e33b 4d71 c4bc
000001f0: 2ded 943e 7446 17be 111e 4b3d 897e 64bd
00000200: 2f9c ed3d 61d8 bebe 2db7 33bf c46d 373d
00000210: 8b1d 1cbf 4002 f0bf 2258 59be 3920 27be
00000220: 2476 28bf 5428 7fbe e6e5 76bf 3e14 603e
00000230: 8287 403d 9079 21bf 266c 48be 1dc7 cabe
00000240: 4852 7ebe 525e 82be 84ba 2e3d 92e1 2f3d
00000250: 4ddf 1dbf acf1 22bf 421b e53d df7b c73e
00000260: 9d03 1a3e 0a6b f63d c969 80bf e054 c4bc
00000270: e8c0 613d 0545 2dbf 6dbb 0fbf 2590 7ebe
00000280: 7441 43be 911e bebe 10e0 13be 4dc4 4fbf
00000290: 123a 2bbf 0657 b4bd 0973 26bf 4ccc 2abf
000002a0: 1183 d7bd f9c2 14be 3d82 c8be 67e4 d53d
000002b0: babd 23bf ca35 e7be 9e8e 39be 6d00 65be
000002c0: 871d 323d 4a8f 62be 18fa 873c 0ea1 903d
000002d0: 9753 b53c 2271 653e 8697 cfbd 7121 8e3e
000002e0: 1ad0 13be 67ea babe 4d48 a73c 49d8 543c
000002f0: e936 7bbc c5a0 38bf 6022 8bbd 1a83 75be
00000300: a573 283d 6c7e bebc 0555 92bd 0ce1 2cbc
00000310: faa6 b73d ee73 4e3c 7d93 423e 65ec 7dbd
00000320: 024d 0c3d 84d2 dbbe 8bda e23d 8215 62be
00000330: f8f8 c5be d55e b43d f8ca 34be 90dd 2bbe
00000340: 5d59 413d a485 c6be cd1f 05bf 0586 a83d
00000350: ab50 8bbe 99d6 1f3e e087 8abf 21ed 3abe
00000360: d75b 88bd 8203 0b3e 7ebd 053c 70d4 d4bd
00000370: f02d 34bd 0200 63bb 6245 513b 56ed aabe
00000380: 8981 35be 3b6d 503e ac3f 10bf fdd5 1c3e
00000390: 94e0 50bf 4926 dd3b a359 fbbe 28f3 6ebf
000003a0: 0936 3cbe 7747 83bf a49d c2be 4cd6 fabe
000003b0: 7ad4 35be 4963 a9bb 5183 b6be 9023 57be
000003c0: 5316 c5be d86c abbe 2145 b03c 43ca 59bf
000003d0: 8181 bcbe b71b 423a a100 47bf d641 533d
000003e0: 906d cbbe cd92 27bf 4b97 3abf 1198 103e
000003f0: 0f47 7dbe 55cf 7fbe 1ee5 b2be 2b64 40bf

5.bias f4 [10]
-0.1051224 -0.6443302 0.06497215 0.19547495 -0.20381823 -0.01967083 0.14626221 0.40732068
-0.18314984 -0.42167407
00000000: 6a4a d7bd d3f2 24bf 1e10 853d 962a 483e
00000010: bab5 50be b824 a1bc c3c5 153e 568c d03e
00000020: a28b 3bbe aae5 d7be
