fashion_sgm/results/fashion_sgm_model_max.pth (torch, 409705 bytes, 4 tensors)

1.weight f4 [128, 784]
000000 d4 48 0a bd 19 83 fb 3c 0d 50 27 bc af 86 a5 3b
       -0.03376086 0.03070216 -0.010211957 0.005051456
000010 81 37 62 be d1 c9 5b be 23 bc 42 be eb 4c ac 3d
       -0.22091486 -0.21463706 -0.19017081 0.084131084
000020 f2 63 64 bd f1 b9 8b bd ac 2c 1c 3d 42 16 bc 3d
       -0.055759378 -0.06822575 0.03812854 0.09183933
000030 15 0c 58 3d d5 37 3e be c4 62 56 be c1 d3 58 bd
       0.052745897 -0.18575986 -0.20936114 -0.05293632
000040 d7 68 06 3e 48 3e 8d 3c f4 68 3f 3d 44 7c 17 3d
       0.1312593 0.017241612 0.04673095 0.036983743
000050 3d 08 06 3d 65 1c f9 3d f9 f8 aa 3d cb 52 7b 3d
       0.0327227 0.12163619 0.08348269 0.061358254
000060 3f dc 29 3d 19 87 e6 bd f2 aa e6 bd fc ef 53 3d
       0.04146981 -0.112562366 -0.11263074 0.05174254
000070 9e 7e b1 3c 4b aa 44 3c 9f ef 08 bd a8 64 4d bd
       0.021666821 0.012003492 -0.033431645 -0.05014482
000080 06 fe 25 be 76 51 35 be 4a 96 6a 3d 70 81 8e 3d
       -0.16210184 -0.17706856 0.057272233 0.06958282
000090 ec 7c 5e bc b2 ce 82 3d b2 08 1c 3c de a3 99 bc
       -0.013579588 0.0638708 0.0095235575 -0.018754896
0000a0 2b d6 ce 3b e1 ca 07 bc ea dd 23 bd e2 89 1f bd
       0.006312152 -0.008288116 -0.040006556 -0.038949855
0000b0 33 96 09 bd 51 94 55 bd 93 d3 8c 3d af a5 14 3d
       -0.033590507 -0.0521434 0.06876292 0.03629082
0000c0 ad f3 46 3d d7 6e a1 bc 64 54 2a 3d e8 91 8f bb
       0.04857223 -0.019706173 0.041584387 -0.004381407
0000d0 b6 7c 04 3e 59 22 6c 3d 0c 15 cf 3c 85 a3 40 3e
       0.12938198 0.057649944 0.02527859 0.18812378
0000e0 26 8b 75 3b a0 a1 b7 ba 18 d0 49 bd f7 0e 42 bd
       0.0037466972 -0.001400996 -0.04927072 -0.047377553
0000f0 15 74 10 be 29 a0 46 be 6d 63 79 3c 3a 06 bc 3b
       -0.14106782 -0.19397034 0.015221459 0.005738047
000100 9a 8a bf 3d a4 28 50 3d 0e d2 c2 bd 49 9d 9f bc
       0.09352608 0.050820008 -0.09512721 -0.01948418
000110 06 65 1b bd d6 32 2a bd 1a 8c 9f 3c d3 14 1e bc
       -0.03793814 -0.041552387 0.019475985 -0.00964852
000120 70 d5 7d 3b f5 f5 e7 bb b6 eb 26 bd cd 63 bf 3c
       0.0038731955 -0.007078881 -0.040752135 0.023363018
000130 9c b1 40 3d f6 b8 74 3d 70 cd 7a 3c 12 0f 6d bc
       0.04704438 0.059746705 0.015307769 -0.014468925
000140 a8 b6 c6 3d de 17 c2 3c be af b1 bc ef 36 10 3d
       0.09702808 0.023693021 -0.021690246 0.03520864
000150 3d 9b 0c bd 97 e8 a5 bc 26 aa b7 bc b6 26 e5 bd
       -0.034327734 -0.020252509 -0.02242 -0.11189024
000160 85 ce 67 be ec ff e6 bd 91 30 8f 3c 11 69 b7 3d
       -0.22637375 -0.11279282 0.017479213 0.08955587
000170 e9 bd f8 3d 8a 79 8a bd eb 7d a3 bd ef 70 d3 3c
       0.121455975 -0.06761463 -0.07983001 0.025810687
000180 12 41 c4 3b 1a 51 3b 3c ec 43 37 3d af 41 8f bb
       0.0059892023 0.01143291 0.04474251 -0.0043718438
000190 72 f0 ce 3b 5c e8 45 3d eb f2 f1 bc 75 ac c6 bd
       0.0063152844 0.0483173 -0.029534778 -0.09700862
0001a0 ac a7 5a 3d 5f 53 4d 3d 73 02 14 bd 2c 4a 86 bd
       0.05338256 0.050128337 -0.03613515 -0.06557116
0001b0 41 91 87 3d a6 09 e2 3d 6a 66 bb 3c 20 70 94 bd
       0.06619502 0.110369965 0.022875983 -0.07247949
0001c0 bc 4c 43 bd 38 71 24 3a d7 48 83 bd 93 e8 c1 bd
       -0.0476806 0.00062729744 -0.064103775 -0.09468188
0001d0 c9 55 70 be 91 9b 0b be 67 f3 e5 3c 77 5b 40 3e
       -0.23470224 -0.13633563 0.028070165 0.18784891
0001e0 df 20 2e 3e d4 01 ec bd 00 b6 bd bd ab fa ca 3c
       0.17004727 -0.11523786 -0.09263229 0.02477773
0001f0 af fc e2 bb a7 9b 4a bc 45 c7 92 3a cd e1 8a 3c
       -0.006927095 -0.012366212 0.0011198303 0.016953373
000200 82 5d 6e 3d 89 b7 12 3d eb a5 5e 3c 8f be df bc
       0.058194645 0.035819564 0.013589363 -0.027312545
000210 60 f4 76 3c b8 f0 9f 3c e4 a5 58 bd 26 0b a6 bb
       0.015072912 0.019523963 -0.05289258 -0.005067247
000220 ff 5f 36 3d 93 84 8b 3d bf be 4a 3d fc 5e 22 3e
       0.044525143 0.06812396 0.049498316 0.15856546
000230 55 e8 d3 bd 25 4f e0 bc 33 2c 83 bd ae 59 07 be
       -0.10347048 -0.027381489 -0.06404915 -0.13217804
000240 8b 6c 58 be 3b 6d 06 be 5d ec 64 bc f2 6b a6 3d
       -0.21135156 -0.13127606 -0.013972369 0.08126058
000250 c2 41 0e 3d 94 85 fb bd 42 d1 26 bd 13 c8 ab 3b
       0.03473068 -0.122813374 -0.040726908 0.0052423566
000260 84 c0 4b 3c 20 47 17 bd 57 95 59 3d f6 f5 1f 3d
       0.012436036 -0.036933064 0.053120937 0.039052926
000270 1c 79 ba 3d 88 07 1e 3d b9 bb 53 3d be fc 82 bd
       0.09105131 0.0385814 0.0516927 -0.06395863
000280 06 69 49 3b 99 b3 90 bc 0f b6 4f bd 5e ea 3f bd
       0.0030732765 -0.017663764 -0.050710734 -0.04685437
000290 a2 7f e8 3c eb 0c 95 3d 41 46 c2 3d 78 9c 7f 3e
       0.028381173 0.072778545 0.09486056 0.24962032
0002a0 0c d0 99 bd a1 f0 3a bd 67 70 97 bd 39 9b ed bd
       -0.07510385 -0.045639638 -0.07394486 -0.11601872
0002b0 a2 1d 8a be c8 44 3c be 04 58 ca bc e0 7c 00 3d
       -0.26975733 -0.18385613 -0.024700172 0.03136909
0002c0 5c 51 fc bd 1c ea 55 be 5b 13 d4 bd 76 db 21 bd
       -0.123202056 -0.20890087 -0.10355254 -0.039515935
0002d0 ed f1 c5 bd 84 b1 87 bc 85 d6 97 3c a3 34 69 3d
       -0.09665284 -0.016564138 0.018534908 0.056934964
0002e0 38 c4 8f 3d 95 12 f8 3c f6 a8 29 3c 7a 03 43 bd
       0.07019848 0.030282298 0.010355225 -0.047610737
0002f0 ed 02 ce bc ea f2 f2 bc 4d a2 28 bd 44 0d e8 bc
       -0.02514788 -0.029656846 -0.041170407 -0.028326638
000300 73 8c 2b 3c 74 73 73 3d 67 e9 4c 3e 53 93 2c 3e
       0.010470497 0.059436277 0.20010911 0.16853075
000310 0c 6d c8 bd e9 4f 2e bd 0d a8 c7 bd 57 0f a9 bd
       -0.09786424 -0.042556677 -0.0974885 -0.08254879
000320 f5 9d 1a be 99 2b 3e be a1 2c e2 bd 59 cc 26 bd
       -0.15099318 -0.18571319 -0.110436685 -0.040722225
000330 ca b4 4f be 9c c2 96 be 00 df 55 be c8 8a ad bd
       -0.2028381 -0.2944535 -0.20885849 -0.08473736
000340 a4 d0 9d bd 2f b3 71 bd fa 50 86 bd 65 15 02 3b
       -0.07705811 -0.059008773 -0.06558414 0.0019849178
000350 80 47 ab 3d 9a a5 88 3d 9c da 9e 3d 0d 4e a1 3c
       0.08363247 0.06672211 0.0775654 0.019690538
000360 49 6d 0c bd 86 e9 aa bc 00 ff 01 bd 17 73 44 3d
       -0.03428391 -0.020863306 -0.031737328 0.04796132
000370 49 77 17 3d 88 67 16 3e 57 b7 54 3d ef 96 30 bb
       0.036978994 0.14687932 0.05193266 -0.0026945432
000380 7d c5 da bd 91 62 a8 bd 5c 83 c7 bd e1 6a cf bd
       -0.10682199 -0.08221925 -0.09741852 -0.101278074
000390 21 4f 40 be 2f e6 27 be df a4 2a be ce 2e 9f bd
       -0.18780185 -0.16396402 -0.16664456 -0.07772599
0003a0 65 7e 9b be ac 4a b1 be 39 39 9e be 97 49 03 be
       -0.3036987 -0.34627283 -0.30903032 -0.12821041
0003b0 27 da da bd 4f 97 d7 bd 1a a8 ce bd a8 79 de 3b
       -0.106861405 -0.10526907 -0.100906566 0.006789405
0003c0 b2 27 e6 3d 90 15 f3 3d e7 a6 6c 3c 87 04 9c bd
       0.1123804 0.11869347 0.0144440895 -0.07618051
0003d0 8e b6 92 bd 80 48 da bc dd 52 a3 b9 b8 18 3f 3d
       -0.07163726 -0.026645899 -0.0003115152 0.046654433
0003e0 06 5e 93 3d a6 36 16 3e e9 3e 22 bd 22 57 c9 bd
       0.07195668 0.14669284 -0.039610777 -0.098310724
0003f0 f1 fe 83 bd 3c 44 c0 bd fe fd 99 bd ca 3a dc bd
       -0.064451106 -0.09388015 -0.07519148 -0.107534006

1.bias f4 [128]
000000 34 bf b4 bd 35 89 97 bc dd c7 08 bc 5a 67 a1 bb
       -0.088255316 -0.018498043 -0.008348432 -0.0049256505
000010 c3 de 65 3d 56 60 07 bd a2 77 bc bc 0d b1 28 bd
       0.056120645 -0.033050857 -0.023006264 -0.041184474
000020 9d 1a 66 3c bb ae 88 3e 95 ac 1b 3e 22 e4 38 3e
       0.014044431 0.2669581 0.15202554 0.18055776
000030 39 4d 31 bc dc 22 6d bc 9e ae 48 3d 66 61 f6 bc
       -0.010821634 -0.014473643 0.048994653 -0.03007574
000040 79 30 4e 3e 61 79 24 3e fa 18 6d bc 35 6d 38 3e
       0.20135678 0.16061927 -0.014471287 0.18010409
000050 ba 31 e0 bd 32 49 95 b9 f7 1b f5 bc da cd cf 3d
       -0.109469846 -0.0002847403 -0.029920561 0.10146685
000060 61 93 95 3c 37 3f 95 3c 85 22 c8 3d de 6b 56 3e
       0.018258752 0.01821862 0.09772209 0.20939586
000070 82 5b aa bc fc 3f 2e bd 6c e1 d7 3b b5 54 16 3d
       -0.020795587 -0.04254149 0.0065881517 0.036701877
000080 49 2f 69 3e d1 76 91 3d e4 1f 80 bb a8 1c 41 3d
       0.22771944 0.071027406 -0.0039100517 0.04714647
000090 c4 c9 28 bd 0b 3e 2c 3d c8 64 3b 3e b5 7a 9d 3c
       -0.041208044 0.042051356 0.18300164 0.01922355
0000a0 17 6a ee 3c 80 df cf b8 71 b4 b0 3b bc b1 ee bd
       0.029103322 -9.912159e-05 0.005392604 -0.11654994
0000b0 01 36 26 bd 90 2f 9a 3b 06 5c 48 3e fb 0b 07 bd
       -0.040578846 0.004705377 0.19566354 -0.03297041
0000c0 47 98 00 bc a8 85 9e 3e 8a 32 0a 3e 1f 33 00 3e
       -0.007848806 0.30961347 0.13495842 0.12519501
0000d0 1a 3f 9b 3c 1f 50 1b 3e 88 f6 4f bd 23 82 76 3c
       0.018950988 0.15167283 -0.05077222 0.015045675
0000e0 06 10 11 3c b5 60 7f 3e e5 ec d2 3c 69 7b cc bc
       0.008853918 0.24939235 0.025747726 -0.02496119
0000f0 ae 09 88 3e de bf 4e 3c e3 2b 74 3b d7 c3 9e 3b
       0.26569885 0.012618987 0.0037257604 0.0048451233
000100 b2 54 c7 bc fa 59 89 3e 51 d2 91 bc df f2 ec 3c
       -0.024332378 0.2682646 -0.017800482 0.028924404
000110 1d 29 a2 bc d0 4b 2a bd 1b 7c 8f bb 27 ea dc 3c
       -0.019794995 -0.041576207 -0.004378808 0.026967121
000120 dc 3f 18 3e 8d 1b 88 bc c2 08 82 bc 02 29 d5 ba
       0.1486811 -0.0166147 -0.015873317 -0.0016262832
000130 1d e1 93 ba f6 57 ab 3e 8a 96 18 3e 76 db 9d 3e
       -0.0011282299 0.33465546 0.14901176 0.30831498
000140 b3 00 2a 3e 87 73 a9 bc bb 15 f1 3a 91 41 21 bd
       0.16601829 -0.02068497 0.0018393317 -0.03936917
000150 f5 5e 4b bc 97 11 6c 3c d1 1d d6 3c 99 88 de 3c
       -0.012412776 0.014408491 0.026137264 0.027164744
000160 e0 c3 81 3c 0b ee 9e bc 07 ed 67 bd 12 9e 99 3e
       0.01584047 -0.019400617 -0.05662253 0.3000341
000170 7c e0 cf 3c cb 1a 0c 3b 7a 5d 0e 3e 48 89 d6 3b
       0.025375597 0.0021378275 0.13902846 0.006547127
000180 93 b9 a0 bc d6 0e 8c 3e bb 6e 51 3e 0e 46 81 bc
       -0.019619739 0.2735507 0.20452397 -0.015780475
000190 54 f9 32 3e 10 bb f7 3d d6 9a e1 bc 89 b4 a7 3c
       0.17477924 0.12096226 -0.027539652 0.020471828
0001a0 81 2c b1 3d 5f 71 87 3d 4e b9 23 3e 85 25 c9 ba
       0.086510666 0.06613421 0.15988657 -0.0015346265
0001b0 7c 94 03 3d d6 83 e1 3c 61 3c 8c 3e 73 88 8d be
       0.032124028 0.027528685 0.27389815 -0.27643165
0001c0 61 60 d3 3d 8f 25 4e 3d f3 ae b6 bc 7d a0 38 be
       0.10321117 0.050328787 -0.02230022 -0.18029971
0001d0 d2 6a b8 bc a6 9e 81 bc 04 4b 1c bd a8 6d a3 bd
       -0.022511873 -0.01582272 -0.038157478 -0.079799
0001e0 ef e2 a3 3e e8 da 1d bd 22 4e 42 3e 65 0c 90 bc
       0.32009074 -0.038538843 0.18975118 -0.017584035
0001f0 bf 85 1d 3a 41 3f 67 3e 2b 54 50 3e 6d ef e0 3c
       0.00060090044 0.22582723 0.20344608 0.027457917

3.weight f4 [10, 128]
000000 a2 b1 8c be 4c ab 75 bd fd 0f ab bd f7 28 23 3d
       -0.27479273 -0.059977815 -0.08352659 0.03983399
000010 45 54 a9 be 43 4c a8 bc 85 b8 7f 3d 21 24 0c bc
       -0.33072105 -0.020544177 0.06243183 -0.008553536
000020 fc 5a cc bc 3b 1b c8 be ad e1 0c be 02 43 28 be
       -0.024945728 -0.39083275 -0.13757963 -0.16431811
000030 f0 72 7d bd 42 b9 82 3d c5 f9 2f bd 7c 57 af 3c
       -0.06187719 0.063829914 -0.04296281 0.02140402
000040 1b 93 4c 3d 59 0f 2e 3d ae 75 73 3d b1 a7 03 be
       0.04994498 0.042495105 0.0594384 -0.12856938
000050 88 58 48 be a5 51 58 3d 11 be 8d bd a4 78 4a be
       -0.19565022 0.052812237 -0.06921018 -0.19772583
000060 ae 38 b7 bc dd f4 71 bb 96 6a 82 3d a7 04 83 3d
       -0.022365894 -0.0036919632 0.06367986 0.06397372
000070 96 7e 5f bd ad 9a 25 3d 18 52 75 3d 4e c0 35 be
       -0.05456408 0.040430713 0.059892744 -0.1774914
000080 71 88 77 3d 4c 23 de 3d 52 8c 84 3d ad 0d 9f bd
       0.060432855 0.10846576 0.064720765 -0.0776628
000090 df dd 4d 3c 92 08 05 bc 21 33 98 bd cc da 84 39
       0.012565105 -0.008119719 -0.07431627 0.00025340018
0000a0 02 89 63 3d 92 bf c0 bd 88 c8 e7 3c 5e 49 0b 3d
       0.055550583 -0.09411539 0.028293863 0.034005515
0000b0 49 44 94 3c 3f c3 6f bd ea 89 02 bd 64 c3 9a bd
       0.018098967 -0.05853581 -0.031869806 -0.07556799
0000c0 ac 75 68 bd 22 41 af 3d ca ba a0 3c 8b 47 b9 bc
       -0.056752846 0.08557345 0.019620318 -0.022617122
0000d0 0c b0 90 bd 95 60 cc 3d 25 15 75 be 0f e1 fd 3a
       -0.07064828 0.09979359 -0.23933847 0.0019369441
0000e0 f8 ec 68 3d ef 5e 4f be cd d8 b6 3c f0 65 39 bd
       0.056866616 -0.20251058 0.022320176 -0.04526323
0000f0 02 6e 6c 3c e3 2b 67 be 5d 1b 8d bd 52 0b a2 3d
       0.014430525 -0.22575335 -0.06889985 0.079123154
000100 fe a6 82 bd 24 07 08 3e b5 75 09 bc f2 cc b7 3a
       -0.063795075 0.13283974 -0.00838988 0.001402287
000110 91 ed 44 3d ef 41 7d bd ea a8 85 bd 44 b6 fb b9
       0.048078123 -0.061830457 -0.065263584 -0.0004801025
000120 8c 87 88 bd bb 27 aa bd 04 e3 be bc 4d 13 8b bc
       -0.066664785 -0.08308359 -0.023301609 -0.016976977
000130 e1 51 ac ba dd 39 ea be 46 d8 28 be c5 ea fc 3c
       -0.001314696 -0.4574727 -0.16488752 0.030873666
000140 9b 7f 6e 3c a4 40 ce bc ed 3c 86 bc d6 d3 93 3d
       0.014556791 -0.025177307 -0.016386474 0.07218139
000150 12 b5 7e bd 89 3e ee 3c 10 53 a6 3d d2 82 4e be
       -0.0621844 0.029082553 0.08121312 -0.20167091
000160 8a 70 30 3d d4 2b 91 bd 38 d7 04 bd 95 d9 83 bd
       0.043076076 -0.07088438 -0.03243181 -0.06437985
000170 2b ee a1 3d 94 6e 95 bd cc d8 62 3d 29 c2 14 be
       0.07906755 -0.07296482 0.055382535 -0.14527191
000180 2d d6 89 3d b4 aa 04 3e 8c 06 81 bc 7b 98 df 3b
       0.06730304 0.12955743 -0.015750192 0.006823597
000190 d7 d8 d2 be cb c4 9e 3c e1 58 34 bd 1a aa 82 3d
       -0.4118106 0.019380948 -0.044030074 0.063801005
0001a0 d7 8b 73 3d ec e0 25 3e 26 62 1d be c2 0f 8f 3c
       0.059459534 0.16199082 -0.15369472 0.017463569
0001b0 ae 2d c4 3c 63 67 f2 3c 7b 25 08 bd 9b d7 e2 3c
       0.023947563 0.029590314 -0.03323887 0.0276907
0001c0 29 d6 fe bc cd 79 e5 3d 03 47 4e 3d eb 2e f9 bd
       -0.031107979 0.11204872 0.05036069 -0.12167152
0001d0 3b 66 c4 bc 22 42 a1 bd d5 67 d0 ba cb 12 a1 3c
       -0.023974529 -0.07873942 -0.0015900085 0.019662281
0001e0 e1 90 9e be f4 cf a3 3b 1d 5b a3 3c be 3c 7a bc
       -0.3096991 0.004999155 0.019940907 -0.015273271
0001f0 48 37 c4 3c 08 4c ac be 04 2e 01 3e 6f 30 96 bd
       0.023952141 -0.33651757 0.1261521 -0.07333457
000200 1a 4d 1f be db ff 8b 3d a3 0c 9d bd 97 de ac bc
       -0.15556756 0.0683591 -0.07668426 -0.021102233
000210 d8 25 0f be 3f ad a1 be 39 7c 95 3d f9 3c 2b bd
       -0.1397928 -0.3157749 0.07299084 -0.041806195
000220 fd 31 23 bd ac ed c6 be 57 ba e4 3d 66 b5 3e bd
       -0.039842594 -0.38853204 0.11168354 -0.046559714
000230 f0 cc 50 be 9b 0a 0b 3d fd df ad be ab 07 7f bd
       -0.20390677 0.03394566 -0.33959952 -0.062263172
000240 81 ad 4f 3d e1 3c 19 be 51 80 a3 3d 8d 70 7f be
       0.050702576 -0.1496463 0.07983459 -0.24945278
000250 16 86 65 be 16 c1 7a bd ce 19 5c bd 09 e8 a5 3d
       -0.22414431 -0.061219297 -0.053735547 0.08100898
000260 18 b5 f7 3c ef bb 6b bd f7 73 79 bd 2c 83 85 be
       0.03023772 -0.057552274 -0.06090161 -0.2607664
000270 f8 d8 99 bd 25 cc 81 3c d2 0d 8f bd 47 d7 ee 3d
       -0.07512087 0.015844414 -0.06985058 0.11662155
000280 88 aa fa bc 5b 67 00 3d f5 28 52 3d b3 b4 0c 3e
       -0.030598894 0.031348567 0.05130859 0.13740806
000290 5f f1 8d bc 3a b3 0f be 77 15 0b be 72 2d 98 bd
       -0.017327009 -0.14033213 -0.13582407 -0.07430543
0002a0 12 4e 6f bd e4 3a 03 3c eb 07 09 3d d6 4a dc bd
       -0.058424063 0.008009646 0.033454817 -0.10756461
0002b0 14 38 00 bd 61 c0 6e bd d9 eb 5c be 1a a1 87 3c
       -0.03130348 -0.058288936 -0.21574344 0.016556311
0002c0 9a 9d 3a bd 18 fc 7b be e9 40 85 3c 08 23 0e bf
       -0.045560457 -0.24607885 0.016266303 -0.55522203
0002d0 85 75 b4 bd 23 23 09 3e e9 7e 3b 3c 35 4c 47 bd
       -0.088114776 0.1339231 0.011443832 -0.04865666
0002e0 43 ad c8 bc 15 ed 39 be 9e f1 9f ba 27 91 7d bd
       -0.02449668 -0.18156846 -0.0012202745 -0.061906006
0002f0 ef fb 7a 3d 8f be 01 be 23 fe ce bc fa b6 bd bd
       0.06127542 -0.12670349 -0.025267666 -0.09263416
000300 9c 2e 96 3d 47 c7 8d be 61 75 80 3d 8a ba 67 3d
       0.07333109 -0.276911 0.06272388 0.056574382
000310 c5 26 0b bd 2c 9f 8e 3d de c0 9c be aa 96 0b 3d
       -0.03397252 0.069639534 -0.30615896 0.03407923
000320 6b 62 6b bc 36 5e b0 bd 98 0a 82 3b 85 37 c5 3c
       -0.014366726 -0.08611719 0.003968548 0.024074325
000330 d2 a9 0c bd c2 58 84 be 3f 2a 08 be 9c 35 4b be
       -0.03434164 -0.25848967 -0.13297366 -0.19844669
000340 04 03 2c be 67 31 41 bd fc 14 e8 bc 92 f1 37 bd
       -0.16798025 -0.047166254 -0.028330319 -0.044908114
000350 ff f0 a5 bd ed f0 2c bd 81 ff 51 be 88 0c 04 3e
       -0.08102607 -0.042221952 -0.20507623 0.12895405
000360 7a 75 21 be a9 4b 54 3d 0e e8 15 be 1e 19 7d be
       -0.1576747 0.051829968 -0.14639303 -0.24716613
000370 2a 3c 15 3a 19 d8 d0 3c 64 e1 12 3d 7c 87 49 be
       0.0005692864 0.025493668 0.03585948 -0.1968059
000380 c9 72 9c bd 2c 1a ea bd 60 5c ce bd e7 c8 f1 3c
       -0.07639081 -0.11430773 -0.10076213 0.029514743
000390 2b a3 ce be 23 c5 a6 3d 0b cb 74 3d 49 c1 4b 3d
       -0.40358862 0.081430696 0.05976395 0.049744878
0003a0 4e 94 a2 be 1f 90 7a be 3b e5 ab be 97 53 9b 3d
       -0.31753772 -0.2446904 -0.33573326 0.07584303
0003b0 4a 31 37 bd 89 db 2c bc 9e 31 9c be e0 67 90 bd
       -0.04472474 -0.010550388 -0.30506605 -0.070510626
0003c0 db a2 69 be b1 a7 6e bd 6b 9a d2 3b d5 5b 34 3e
       -0.2281603 -0.05826539 0.0064270995 0.17613156
0003d0 11 3e 90 3d 7f 2c a1 bd 05 b5 07 3d b6 cb 8f 3b
       0.07043088 -0.07869815 0.033131618 0.004388298
0003e0 2a 2d 63 be d6 ff 06 3d b0 cd 3f 3d 5e be 1b bd
       -0.22185197 0.032958828 0.04682702 -0.038023345
0003f0 cb 31 22 3d 3b e7 e4 be db f3 92 be 17 8d 97 bd
       0.039598268 -0.44707665 -0.28701672 -0.073999576

3.bias f4 [10]
000000 7d 06 92 bd 68 f3 49 be f4 48 aa bc 0f 00 83 3d
       -0.07130144 -0.19721758 -0.02078674 0.063964956
000010 dc 55 70 be 33 31 02 3e f3 46 39 3e 68 a4 b7 3c
       -0.23470253 0.1271408 0.18093471 0.022417262
000020 c5 a4 86 be 97 6a a0 be
       -0.26297584 -0.31331322
