fashion_sgm/results/fashion_sgm_model.pth (torch, 409665 bytes, 4 tensors)

1.weight f4 [128, 784]
-0.01797247 0.087906495 -0.08579659 0.027044244 -0.03576655 0.011246606 0.10312545 0.034599945
-0.076461405 -0.04569612 -0.020197595 0.119498745 -0.030607166 -0.06912063 -0.021333242 -0.05463896
0.10601578 0.1320714 0.021381319 -0.014476001 0.023695543 0.1114002 0.060879983 0.07753057
0.09067256 0.11059378 0.059844874 0.066663444 0.012115762 0.06540731 0.014782101 0.009097714
0.024108836 0.0150517775 -0.08645671 -0.07575081 -0.06361382 0.079246014 0.061233822 0.006382409
-0.052204452 0.0023228892 0.06320491 0.0035393916 0.018422913 0.05823096 0.10216454 0.0475763
-0.043149073 0.054135934 0.11693631 0.04745164 0.022803191 -0.007740897 -0.008933148 -0.04575729
0.053690527 -0.02315449 -0.010994202 -0.012179758 -0.03268024 0.0006976992 -0.07182091 -0.0033916344
0.05258143 0.0023747347 -0.024841137 -0.03934988 0.012416878 -0.011762726 -0.058665164 -0.029181931
0.016880816 0.0023371456 0.016053567 -0.0077543417 0.014027436 0.034197897 0.0045349156 0.046902046
0.021840224 0.033620287 0.05476711 0.18634929 -0.0020145637 -0.004530118 0.08530197 0.032725815
-0.0013012916 -0.007874971 -0.02926414 -0.018091967 -0.06699077 0.038243484 0.058919914 0.0817818
0.022106534 0.00478297 -0.033943012 0.025626587 0.027777232 -0.05676345 0.00720122 0.0016983408
-0.020159021 0.034525663 0.059906516 0.066886894 0.08072533 0.08283136 0.036964834 0.07823499
0.058793377 0.027654028 0.046944354 0.07676861 -0.0038667887 0.045795947 -0.00841531 -0.068433195
0.010682787 0.034448616 0.062593 0.044348843 0.052466244 -0.00070447865 -0.0045942683 0.0101776095
0.0014262132 -0.05345404 -0.052032866 -0.040199585 0.0064419606 -0.021969019 0.027265318 0.030878467
0.028314056 0.04764192 0.036365964 -0.0048509147 0.13047087 0.04816326 0.034617055 -0.011589799
0.07857902 -0.0055296444 -0.059408903 -0.041444644 0.0033028 0.06747261 0.039554678 0.035566147
0.081932575 0.038291305 0.017182503 0.062261984 -0.008974048 -0.011693989 -0.06738432 -0.018960698
0.030673772 -0.073341414 0.02958456 0.050502315 0.0032810026 0.04073545 0.022145957 0.037426937
0.12867893 0.104826875 0.08051641 0.055132058 0.06356075 -0.008926865 0.030634087 0.009054956
0.02974563 0.07965971 0.06695635 0.07357055 0.015901446 0.064705685 0.011648771 0.053547293
0.040963896 -0.04133253 -0.03543643 -0.02027116 -0.018909309 0.0047291587 0.016899971 0.024781113
0.026302833 0.049830507 -0.017003125 -0.0025512585 0.17140593 0.12157672 0.08553153 0.05895077
0.004442883 0.050114296 0.026832338 -0.0056591183 0.047004342 0.10316788 0.10719244 0.13140807
0.08939309 0.040858954 0.009298232 -0.0012103727 0.008430047 0.014057461 -0.0679666 -0.04053424
-0.018384723 0.021655444 0.013433885 0.00822247 0.017436858 0.054513767 0.08461793 0.032025453
0.18630877 0.07251314 0.020274354 0.008743555 0.09659204 0.03602045 0.06408678 -0.042803194
0.047979344 0.07889392 0.05419004 0.07622849 0.08777135 0.078360945 0.013560293 0.028583294
-0.0151652675 -0.022249147 -0.01890214 0.0346811 -0.017773978 -0.0053953785 0.015176591 0.03634022
0.041357752 0.043006178 0.079055525 0.054691844 0.19654334 0.04751073 0.06574384 0.049328703
00000000: 003b 93bc 5208 b43d 1fb6 afbd e48b dd3c
00000010: f27f 12bd af43 383c 7033 d33d acb8 0d3d
00000020: cc97 9cbd db2b 3bbd 6d75 a5bc c2bb f43d
00000030: e1bb fabc 1e8f 8dbd 0dc3 aebc 1acd 5fbd
00000040: cd1e d93d ba3d 073e e027 af3c c02c 6dbc
00000050: 281d c23c ca25 e43d 4a5d 793d 59c8 9e3d
00000060: 89b2 b93d fe7e e23d e61f 753d d886 883d
00000070: 3081 463c 45f4 853d a030 723c 940e 153c
00000080: e57f c53c bb9b 763c 3710 b1bd 3e23 9bbd
00000090: f647 82bd bc4b a23d 51d0 7a3d 8723 d13b
000000a0: 56d4 55bd 9d3b 183b 9371 813d 23f5 673b
000000b0: a6eb 963c 9683 6e3d a43b d13d 5edf 423d
000000c0: 15bd 30bd a4bd 5d3d 4e7c ef3d a75c 423d
000000d0: c2cd ba3c 5aa7 fdbb 575c 12bc ff6b 3bbd
000000e0: 99ea 5b3d 7cae bdbc 0721 34bc 9c8d 47bc
000000f0: b7db 05bd cde5 363a d716 93bd 2f46 5ebb
00000100: a05f 573d 70a1 1b3b a47f cbbc 572d 21bd
00000110: 2970 4b3c 73b8 40bc e24a 70bd f20e efbc
00000120: a349 8a3c cc2a 193b c582 833c 2218 febb
00000130: 55d3 653c 1813 0c3d a199 943b 5c1c 403d
00000140: 45ea b23c 6db5 093d 7a53 603d 59d2 3e3e
00000150: c506 04bb 6271 94bb cdb2 ae3d 810b 063d
00000160: 1a90 aaba 0606 01bc 5abb efbc 9b35 94bc
00000170: 7532 89bd 33a5 1c3d 0256 713d 377d a73d
00000180: c318 b53c 76ba 9c3b d407 0bbd d9ee d13c
00000190: 148d e33c cb80 68bd 36f8 eb3b dc9a de3a
000001a0: 8824 a5bc c86a 0d3d 8960 753d fffb 883d
000001b0: 5253 a53d 7da3 a93d 7068 173d ab39 a03d
000001c0: 53d1 703d b38a e23c b948 403d dc38 9d3d
000001d0: f369 7dbb 8894 3b3d 5ee0 09bc b426 8cbd
000001e0: db06 2f3c fe19 0d3d c230 803d 22a7 353d
000001f0: d8e6 563d c3ac 38ba 848b 96bb fdbf 263c
00000200: c6ef ba3a a0f2 5abd 6a20 55bd 52a8 24bd
00000210: 1517 d33b 5ff8 b3bc 845b df3c d7f4 fc3c
00000220: e1f2 e73c 2d24 433d 7af4 143d 6cf4 9ebb
00000230: 289a 053e d746 453d 9dca 0d3d 24e3 3dbc
00000240: 0aee a03d 0532 b5bb c056 73bd dcc1 29bd
00000250: ca73 583b 142f 8a3d 1604 223d cfad 113d
00000260: 44cc a73d 58d7 1c3d 52c2 8c3c 6c06 7f3d
00000270: e307 13bc 2598 3fbc ca00 8abd 7753 9bbc
00000280: 9047 fb3c 0634 96bd 525b f23c 84db 4e3d
00000290: 1706 573b 37da 263d 706b b53c fd4c 193d
000002a0: 69c4 033e 79af d63d cae5 a43d 27d2 613d
000002b0: 232c 823d fc41 12bc 56f4 fa3c 3d5b 143c
000002c0: 1cad f33c a124 a33d 6920 893d 28ac 963d
000002d0: c043 823c 6a84 843d 7dda 3e3c 6854 5b3d
000002e0: c2c9 273d 4d4c 29bd ca25 11bd b40f a6bc
000002f0: b2e7 9abc 0ff7 9a3b cf71 8a3c c301 cb3c
00000300: 0a79 d73c 131b 4c3d 234a 8bbc 0433 27bb
00000310: 0985 2f3e 37fd f83d 282b af3d 5d76 713d
00000320: 9b95 913b a644 4d3d 7ecf db3c 2070 b9bb
00000330: a087 403d ae49 d33d b687 db3d d68f 063e
00000340: b913 b73d b85b 273d 9d57 183c 5ea5 9eba
00000350: 2e1e 0a3c 4451 663c 1332 8bbd 3b07 26bd
00000360: 8f9b 96bc c266 b13c cc19 5c3c 8ab7 063c
00000370: bed7 8e3c d449 5f3d 2a4c ad3d 1f2d 033d
00000380: bac7 3e3e c581 943d 6716 a63c 2141 0f3c
00000390: 0cd2 c53d 2e8a 133d ee3f 833d 6752 2fbd
000003a0: fd85 443d 2393 a13d 60f6 5d3d af1d 9c3d
000003b0: 77c1 b33d b47b a03d fe2b 5e3c 8327 ea3c
000003c0: be77 78bc d843 b6bc a9d8 9abc c50d 0e3d
000003d0: bc9a 91bc b7cb b0bb 3da7 783c 7cd9 143d
000003e0: bf66 293d 3f27 303d dde7 a13d 8e04 603d
000003f0: a842 493e 9c9a 423d b5a4 863d e50c 4a3d

1.bias f4 [128]
-0.052763496 0.034482826 -0.052868325 0.011696756 -0.03952286 -0.0017940988 0.011798011 0.0074850237
0.19926898 0.06949022 0.08713321 0.08025838 -0.064551376 0.10799956 -0.07616083 0.12541683
-0.013803609 -0.009467968 -0.087336294 0.18891732 0.08262908 0.1623045 -0.13592902 -0.10401004
-0.034307364 -0.06082149 0.09819612 0.0023338553 -0.0042785234 0.015666274 -0.18169829 0.006408031
-0.046722166 0.012244725 0.15505052 0.07964211 0.3073561 -0.012144904 -0.034992747 -0.00967665
0.15811355 0.13356659 0.08889104 0.13384542 0.13380668 0.02412309 -0.024847668 0.09253053
0.24097027 -0.28810626 0.2804483 -0.0135024795 0.087770864 -0.015125914 0.27566606 0.0059091602
-0.034356285 0.112533145 0.32265034 0.22529882 -0.2737135 0.12644087 -0.011031764 0.12823409
0.16959473 0.10839214 0.08220887 -0.06027596 0.10484102 -0.019270638 0.11950799 0.17508201
0.20658463 -0.09867536 0.16099778 -0.11545372 0.08663172 -0.040426966 -0.08755003 0.08878735
-0.12015229 -0.035109613 0.2816416 -0.09144193 0.016146554 -0.32211834 0.18976021 0.09133279
0.13187101 -0.042163327 0.06208945 0.0995887 -0.03289627 -0.05421264 -0.03706811 0.13722217
0.009221461 0.057754375 0.024150038 0.33821216 -0.1397192 0.023662122 -0.059685662 0.11947788
0.09347997 -0.17037413 0.18114643 0.13200092 0.031913683 0.0011537262 0.25357008 -0.12854059
-0.05174138 0.07684351 -0.073543556 0.08243012 0.19213927 0.3427185 0.22557546 -0.009060586
0.043607328 0.05078991 -0.24629505 0.08196734 -0.00077599037 -0.12957768 0.028610121 0.13780388
00000000: 891e 58bd dd3d 0d3d 758c 58bd c0a3 3f3c
00000010: b9e2 21bd f727 ebba 724c 413c ee44 f53b
00000020: 2b0d 4c3e e350 8e3d e572 b23d 815e a43d
00000030: 8333 84bd e02e dd3d 36fa 9bbd 456d 003e
00000040: 8828 62bc 891f 1bbc 5fdd b2bd 8b73 413e
00000050: 6f39 a93d 2733 263e fa30 0bbe 3703 d5bd
00000060: e185 0cbd f41f 79bd 0c1b c93d 98f3 183b
00000070: db32 8cbb 8f56 803c 1e0f 3abe 76fa d13b
00000080: be5f 3fbd 199e 483c 90c5 1e3e 671b a33d
00000090: c75d 9d3e 6bfb 46bc 8e54 0fbd d08a 1ebc
000000a0: 85e8 213e aec5 083e 810c b63d c60e 093e
000000b0: 9e04 093e c99d c53c 568d cbbc a680 bd3d
000000c0: e9c0 763e aa82 93be eb96 8f3e 8139 5dbc
000000d0: 36c1 b33d aed2 77bc 1a24 8d3e a1a1 c13b
000000e0: 2db9 0cbd c777 e63d 6d32 a53e bcb4 663e
000000f0: 2d24 8cbe b779 013e 92be 34bc cc4f 033e
00000100: 3eaa 2d3e b3fc dd3d 205d a83d ede3 76bd
00000110: e4b6 d63d 75dd 9dbc 9bc0 f43d b348 333e
00000120: ec8a 533e 4f16 cabd 9adc 243e 0073 ecbd
00000130: f96b b13d bf96 25bd 6e4d b3bd 24d6 b53d
00000140: 6712 f6bd 19cf 0fbd 5433 903e e845 bbbd
00000150: c745 843c b2ec a4be 8050 423e b00c bb3d
00000160: 3209 073e 74b3 2cbd 8251 7e3d 29f5 cb3d
00000170: 3dbe 06bd 130e 5ebd bbd4 17bd f883 0c3e
00000180: 9c15 173c da8f 6c3d 4dd6 c53c 252a ad3e
00000190: 8d12 0fbe 11d7 c13c f478 74bd d2b0 f43d
000001a0: 6d72 bf3d 8e76 2ebe 737e 393e 402b 073e
000001b0: ecb7 023d a138 973a f0d3 813e 25a0 03be
000001c0: c5ee 53bd 2160 9d3d 019e 96bd 1fd1 a83d
000001d0: 28c0 443e cd78 af3e 41fd 663e da72 14bc
000001e0: 999d 323d 1509 503d c534 7cbe 7ede a73d
000001f0: d56b 4bba 03b0 04be c65f ea3c 761c 0d3e

3.weight f4 [10, 128]
0.09232531 -0.08494963 0.1241728 -0.09377176 -0.05860058 -0.02539828 -0.1112385 0.15394656
0.08267691 -0.12883376 0.15033633 0.056773987 0.023333747 -0.006146449 -0.079454936 -0.07441329
-0.11675043 -0.00068329094 0.072591946 0.09726377 0.008816844 -0.019881003 -0.013160703 -0.059252005
-0.03787957 0.10520471 -0.1285827 0.052735217 0.019922208 -0.022179984 -0.15424456 -0.1654114
-0.15500346 0.07782778 0.12901969 0.1148945 0.02639816 -0.13614492 0.047459114 -0.039485946
-0.12611544 -0.07226047 -0.08171773 0.11468255 -0.02996682 0.10206331 -0.08499342 -0.08802322
0.08608268 -0.12845251 -0.018354286 0.055604994 -0.011104104 0.03295415 0.05902838 0.063755795
0.082481116 -0.015689341 0.16656682 0.027546303 0.0099521 -0.18742143 -0.017576084 0.10981418
-0.2862786 -0.028819963 -0.111831196 0.047905274 -0.07976769 0.060198415 -0.15524018 0.118441135
0.022396354 -0.013646032 -0.06642372 0.026543222 -0.11104855 -0.04001936 0.026216315 0.08224931
0.07765918 -0.13690272 -0.09409196 -0.107571825 0.0553981 -0.11268812 -0.026149282 -0.11123193
0.080442704 -0.057205606 -0.052779384 -0.005800425 0.02338205 -0.09883863 -0.012873659 -0.049568433
-0.23705782 0.1538699 0.071274735 -0.10275996 -0.15163574 -0.061185908 -0.08691952 -0.11915986
0.11098586 -0.059871357 -0.09974758 -0.16143245 -0.03172774 0.12218186 -0.093183614 0.10278304
0.058705367 -0.114156574 0.022086797 -0.116972625 -0.09789641 0.049517952 -0.18798316 -0.008140538
-0.050774626 0.049443625 -0.10850083 -0.19122495 -0.07357025 0.053387783 0.040724274 -0.10760466
0.044660766 -0.12469814 0.08299287 0.0020608043 -0.03639588 0.008141963 0.14686492 -0.08441552
-0.11175649 -0.07323091 0.08172364 0.11403104 -0.097121134 -0.13915718 0.13604963 -0.18313773
-0.09390466 -0.07738547 0.12138431 -0.15879099 -0.20907833 -0.027196638 -0.0044856807 -0.119469
0.044150505 0.018430142 -0.034032665 -0.13663806 -0.04660764 0.13683447 0.029901076 -0.15622333
0.037850603 0.0064896727 -0.12585744 -0.14144503 -0.06764216 -0.12888573 0.0642048 -0.031631183
-0.06223531 0.123754315 0.045630585 0.009853146 -0.11236747 0.11084412 0.16446045 -0.03745224
-0.102549806 0.123711385 -0.20174557 -0.03758076 -0.003773185 -0.06737548 0.043812368 -0.10351398
-0.082317114 0.024549076 -0.19185916 -0.11283355 -0.07925783 -0.18199506 -0.03339763 -0.13198942
-0.30196726 -0.0730879 -0.18247025 -0.11866958 -0.113684595 -0.03342805 -0.1456171 -0.14912532
0.08339713 0.13602015 0.026757259 0.01791238 0.10319469 0.076595835 -0.11285753 0.026860189
-0.06580548 -0.15326232 -0.12643702 0.10566947 -0.06271982 0.1136687 -0.083363965 -0.043537896
0.14310798 -0.05159932 0.12745629 0.17136209 0.1566317 0.07298014 0.007746518 -0.117779054
-0.18222986 -0.1329714 -0.023573594 -0.05289406 -0.0039965543 -0.07170252 0.16825216 -0.16272287
-0.04013632 -0.09801425 -0.0268775 0.026964288 -0.14109333 0.1567687 -0.21502297 -0.1481875
-0.039471105 -0.118336804 0.024000557 -0.11395586 0.0297611 -0.1084268 0.089426644 -0.10158793
0.15905142 -0.1741307 -0.08836614 -0.15264328 -0.09994168 0.0822537 0.099609755 -0.10356044
00000000: 0d15 bd3d 12fa adbd 4f4e fe3d 690b c0bd
00000010: 2907 70bd 0e10 d0bc 03d1 e3bd 2ba4 1d3e
00000020: 8352 a93d ffec 03be c4f1 193e d78b 683d
00000030: 6a26 bf3c 2768 c9bb 45b9 a2bd ff65 98bd
00000040: d91a efbd e11e 33ba 16ab 943d 3a32 c73d
00000050: 8674 103c 7cdd a2bc fd9f 57bc 3bb2 72bd
00000060: 9c27 1bbd 9175 d73d 2fab 03be e200 583d
00000070: e633 a33c ccb2 b5bc 49f2 1dbe 9b61 29be
00000080: 3ab9 1ebe 2c64 9f3d bd1d 043e cf4d eb3d
00000090: f440 d83c 9369 0bbe 7d64 423d 04bc 21bd
000000a0: 6824 01be 4cfd 93bd a05b a7bd afde ea3d
000000b0: fa7c f5bc 9206 d13d 0811 aebd 8545 b4bd
000000c0: 1e4c b03d 0e89 03be ba5b 96bc 10c2 633d
000000d0: fded 35bc eefa 063d bec7 713d 6692 823d
000000e0: dceb a83d ef86 80bc 7e90 2a3e c9a8 e13c
000000f0: 220e 233c 67eb 3fbe b8fb 8fbc 42e6 e03d
00000100: 1c93 92be d817 ecbc c107 e5bd 5238 443d
00000110: 3e5d a3bd 9d92 763d 48f7 1ebe 4491 f23d
00000120: 8f78 b73c 9b93 5fbc 2909 88bd 2c71 d93c
00000130: 6c6d e3bd 57eb 23bd 99c3 d63c 5472 a83d
00000140: c70b 9f3d 3a30 0cbe 49b3 c0bd 9e4e dcbd
00000150: 1ee9 623d 07c9 e6bd 0537 d6bc 91cd e3bd
00000160: 25bf a43d 6d50 6abd 322f 58bd 7e11 bebb
00000170: b78b bf3c e86b cabd 0aec 52bc 4508 4bbd
00000180: 49bf 72be 1290 1d3e 7df8 913d d073 d2bd
00000190: 6646 1bbe 139e 7abd dc02 b2bd 160a f4bd
000001a0: 8e4c e33d ab3b 75bd 7648 ccbd 8c4e 25be
000001b0: f2f4 01bd 7c3a fa3d 0dd7 bebd ea7f d23d
000001c0: 0a75 703d ecca e9bd 5fef b43c 588f efbd
000001d0: ea7d c8bd 56d3 4a3d a87e 40be e45f 05bc
000001e0: 0ef9 4fbd 6685 4a3d af35 debd 79d0 43be
000001f0: 00ac 96bd 26ad 5a3d 7fce 263d d55f dcbd
00000200: 35ee 363d bd61 ffbd 2af8 a93d 8f0e 073b
00000210: d913 15bd de65 053c c263 163e 0be2 acbd
00000220: 96e0 e4bd 16fa 95bd b95e a73d 1b89 e93d
00000230: 72e7 c6bd 387f 0ebe 9850 0b3e 7588 3bbe
00000240: 1651 c0bd 467c 9ebd 5698 f83d 1b9a 22be
00000250: a118 56be 7ccb debc 9efc 92bb 2aac f4bd
00000260: 29d7 343d cffa 963c d665 0bbd d9ea 0bbe
00000270: a7e7 3ebd 561e 0c3e 1af3 f43c 02f9 1fbe
00000280: 3c09 1b3d 52a7 d43b c6e0 00be f7d6 10be
00000290: f987 8abd 9ffa 03be ce7d 833d b38f 01bd
000002a0: 74ea 7ebd e772 fd3d 23e7 3a3d 176f 213c
000002b0: eb20 e6bd 3e02 e33d 5268 283e 8567 19bd
000002c0: a205 d2bd 655c fd3d 6496 4ebe 48ee 19bd
000002d0: 8a47 77bb 28fc 89bd 9974 333d 23ff d3bd
000002e0: e095 a8bd 251b c93c ba76 44be 4715 e7bd
000002f0: ee51 a2bd ea5c 3abe f4cb 08bd 3c28 07be
00000300: 749b 9abe 1caf 95bd 7bd9 3abe 0909 f3bd
00000310: 78d3 e8bd daeb 08bd a61c 15be 4fb4 18be
00000320: 1dcc aa3d de48 0b3e 0a32 db3c fcbc 923c
00000330: bd57 d33d 47de 9c3d d921 e7bd e609 dc3c
00000340: 06c5 86bd ccf0 1cbe b578 01be 3c69 d83d
00000350: 4073 80bd 23cb e83d baba aabd cb54 32bd
00000360: e68a 123e cf59 53bd e783 023e 8b79 2f3e
00000370: 0f64 203e 9d76 953d 81d6 fd3b 2536 f1bd
00000380: 779a 3abe a829 08be 691d c1bc 71a7 58bd
00000390: 87f5 82bb c5d8 92bd 4b4a 2c3e d3a0 26be
000003a0: fb65 24bd b2bb c8bd 342e dcbc 36e4 dc3c
000003b0: c57a 10be f987 203e fb2e 5cbe 77be 17be
000003c0: 74ac 21bd 915a f2bd d19c c43c b161 e9bd
000003d0: 8dcd f33c df0e debd 5125 b73d 550d d0bd
000003e0: 60de 223e 514f 32be 4ff9 b4bd 854e 1cbe
000003f0: 39ae ccbd a174 a83d 3300 cc3d 7f17 d4bd

3.bias f4 [10]
-0.04959961 -0.19201995 0.09361948 0.07081978 -0.23371328 0.10152588 0.017272757 0.10408836
-0.07108479 -0.1509577
00000000: f628 4bbd e1a0 44be 92bb bf3d f609 913d
00000010: 8952 6fbe cdec cf3d 997f 8d3c 472c d53d
00000020: e794 91bd a894 1abe
