fashion_sgm/30epoch/fashion_sgm_model_max.pth (torch, 409705 bytes, 4 tensors)

1.weight f4 [128, 784]
0	0xbd02e58c	-0.031957194
1	0xbdace14a	-0.08441408
2	0xbd9de5f9	-0.077098794
3	0xbdaf54dd	-0.08561108
4	0xbe0e01b4	-0.13867837
5	0xbdacc38a	-0.084357336
6	0xbda83e61	-0.08215023
7	0xbda60c40	-0.08107805
8	0xbbd5377c	-0.0065068584
9	0xbb8c204d	-0.0042763115
10	0xbb57b22f	-0.0032912602
11	0xbc96489d	-0.018345172
12	0xbd97d9fe	-0.074146256
13	0xbc9fef0d	-0.019523168
14	0xbd4082b9	-0.046999667
15	0xbcd4c144	-0.025971062
16	0xbcebe1b2	-0.028794143
17	0x3b61fe68	0.0034483913
18	0xbc69640a	-0.014245043
19	0xbbc7a0a5	-0.0060921484
20	0x3aa9d118	0.0012955992
21	0x3ba9829a	0.0051730396
22	0x3c8dc98a	0.017308015
23	0x3cffae84	0.031211145
24	0xbda21209	-0.07913596
25	0xbd59856f	-0.053105768
26	0x3cc488bb	0.02399098
27	0xbd3c32d1	-0.0459469
28	0xbd6ad39d	-0.057330716
29	0xbd1940e8	-0.037415415
30	0xbddd34df	-0.108011
31	0xbe0eca08	-0.13944256
32	0xbe46f6c0	-0.19430065
33	0xbe00df01	-0.12585069
34	0xbdb0963b	-0.08622404
35	0xbd069e8c	-0.032866046
36	0xbc5bccee	-0.013415558
37	0xbd19d0f0	-0.037552774
38	0xbcbfc764	-0.023410507
39	0xbd22d8f5	-0.039757688
40	0xbd93afa8	-0.07211238
41	0xbd687585	-0.0567527
42	0xbdb5fdb2	-0.08886279
43	0xbd737d01	-0.059445385
44	0xbd796cda	-0.060894825
45	0xbd24ab37	-0.040202346
46	0xbd01975a	-0.03163848
47	0xbd4772ef	-0.048693594
48	0xbccb5c86	-0.024824392
49	0x3c4aa16c	0.012367588
50	0x3d1bec62	0.03806723
51	0x3db91e93	0.09039035
52	0xbb3e5380	-0.002904147
53	0xbd83d750	-0.06437552
54	0x3d0b2f9c	0.03398095
55	0xbd303886	-0.043022655
56	0xbdefe4bb	-0.11713549
57	0x3cfb9c78	0.030714259
58	0xbdb3a2a7	-0.08771258
59	0xbe0643ab	-0.13111751
60	0xbdbb8f1a	-0.09158154
61	0xbda29f34	-0.07940522
62	0xbd38ea82	-0.04514552
63	0xbda54666	-0.08070068
64	0xbd83ee96	-0.06441991
65	0xbd08e8a0	-0.033424973
66	0xbd4a87d3	-0.04944594
67	0xbd9df857	-0.07713383
68	0xbd4606dc	-0.048346385
69	0xbdef1d66	-0.11675529
70	0xbdb85422	-0.09000422
71	0xbd4ac98c	-0.049508616
72	0xbdd384c7	-0.1032806
73	0xbd853e5c	-0.06506035
74	0xbd5fd940	-0.054650545
75	0xbd43cc75	-0.047802407
76	0xbc9d008d	-0.019165302
77	0x3c9ad65e	0.018901046
78	0x3d6076f1	0.05480093
79	0x3dc435e0	0.09580588
80	0xbd343cbf	-0.044003244
81	0xbdd2d410	-0.10294354
82	0x3ce670bf	0.028129933
83	0xbc12c31d	-0.008957651
84	0x3cf2cba8	0.029638126
85	0xbd05cbc5	-0.032665033
86	0xbe1395c1	-0.14412595
87	0xbe1a8124	-0.15088326
88	0xbd66adc6	-0.056318067
89	0xbd1d7ecf	-0.038451012
90	0xbcaf2545	-0.021380076
91	0xbd26d50e	-0.04073053
92	0xbcf804fc	-0.030275814
93	0xbdc094e3	-0.09403398
94	0xbd13a6c9	-0.03604773
95	0xbce70425	-0.028200218
96	0xbda03e9e	-0.07824443
97	0xbdbd14c5	-0.09232477
98	0xbde8786b	-0.11351093
99	0xbd860f5b	-0.065458976
100	0xbd7fa2da	-0.062411167
101	0xbd906ec2	-0.070523754
102	0xbd561fcd	-0.05227642
103	0xbd89ad03	-0.067224525
104	0xbd9185f5	-0.071056284
105	0x3d03e1d4	0.03219779
106	0x3daa11a2	0.083041444
107	0x3dbad06f	0.09121787
108	0x3d8dc058	0.06921452
109	0x3ce224e6	0.027605485
110	0xbc3286b4	-0.010896374
111	0xbbf80a6e	-0.0075696027
112	0x3a6a3d41	0.0008935519
113	0xbd6561e4	-0.05600156
114	0xbddc50f6	-0.107576296
115	0xbdb70c33	-0.08937874
116	0xbd361c24	-0.04446043
117	0xbd9404ce	-0.07227479
118	0xbd334867	-0.04377022
119	0xbd024924	-0.031808034
120	0xbd681039	-0.056656096
121	0xbdcaaa76	-0.09895794
122	0xbd8851ac	-0.06656203
123	0xbdcf4ddf	-0.101222746
124	0xbddee09c	-0.108826846
125	0xbdbf37d4	-0.0933682
126	0xbdf5ec22	-0.120079294
127	0xbd70a53d	-0.058751334
128	0xbdab5eb2	-0.08367671
129	0xbcfe0f7d	-0.031013245
130	0xbbaa5b17	-0.005198847
131	0xbd11f48d	-0.035633612
132	0xbc2c7d33	-0.010527897
133	0x3c09b346	0.0084045585
134	0x3d7c3a77	0.061579194
135	0x3d3d2a35	0.04618283
136	0x3d9522c0	0.07282019
137	0x3d12c5ee	0.03583329
138	0x3c4c2275	0.012459387
139	0xbdc01f9e	-0.093810305
140	0xbc87acb3	-0.016561842
141	0x3d396b39	0.04526827
142	0xbde03786	-0.1094809
143	0xbdbec2fb	-0.09314533
144	0xbd504d98	-0.05085525
145	0xbd88240d	-0.06647501
146	0xbd9fd97f	-0.07805156
147	0xbd989d7d	-0.074519135
148	0xbd9aed0e	-0.07564746
149	0xbd86cb3e	-0.06581734
150	0xbd5b2b6f	-0.05350822
151	0xbcbbdc32	-0.022932146
152	0xbd9085aa	-0.070567444
153	0xbdb3678b	-0.08759984
154	0xbdafad0e	-0.085779294
155	0xbc51a202	-0.012794973
156	0xbd90ac61	-0.07064129
157	0xbcccb297	-0.024987502
158	0xbd6b0a56	-0.057382904
159	0xbd669f7c	-0.05630444
160	0xbc3745fe	-0.011186121
161	0x3cf1326a	0.029442985
162	0x3d7498a7	0.059715893
163	0x3da724ff	0.08161353
164	0x3de16ad9	0.11006708
165	0x3d7cb09f	0.061691877
166	0xbcf9b2de	-0.030480798
167	0xbe43e5f0	-0.19130683
168	0xbd61e717	-0.055152025
169	0xbd512f9f	-0.051070806
170	0xbd728934	-0.05921288
171	0xbd83ea2a	-0.064411476
172	0xbd2876ef	-0.04112905
173	0xbd1a8293	-0.03772218
174	0xbdb9ebb2	-0.090781584
175	0xbd15e500	-0.036595345
176	0xbd1b5691	-0.037924353
177	0xbdde3dde	-0.10851644
178	0xbd1a2d46	-0.037640832
179	0xbd680ed4	-0.056654766
180	0xbc7e4f61	-0.015521855
181	0xbcfa9f67	-0.030593587
182	0xbd92d1a0	-0.07168889
183	0xbba9c66c	-0.0051811244
184	0xbcfef58d	-0.031122947
185	0xbd05cade	-0.032664172
186	0xbd26d30c	-0.040728614
187	0xbc484873	-0.0122243045
188	0x3cc97f5a	0.024596859
189	0x3d8ecc42	0.06972553
190	0x3d802009	0.0625611
191	0x3e06673d	0.1312532
192	0x3e076ae6	0.13224372
193	0xbcd5f6ca	-0.026118655
194	0xbdc270be	-0.0949416
195	0xbe367f4d	-0.17821999
196	0xbd44f450	-0.048084557
197	0x3b9ef6cb	0.0048511974
198	0xbcfe4cfa	-0.031042565
199	0xbc4e31eb	-0.012585144
200	0xbb41f5ac	-0.0029595895
201	0xbd153342	-0.036425836
202	0xbd4404d5	-0.04785617
203	0xbd754c16	-0.059887014
204	0xbdb216be	-0.08695744
205	0xbd2ea07b	-0.042633515
206	0xbdc89185	-0.09793381
207	0xbdd1fe0c	-0.10253534
208	0xbbafb7fb	-0.0053625084
209	0xbc312bd8	-0.010813676
210	0x3ca0bad2	0.019620333
211	0xbbdec5df	-0.0067984904
212	0xbd680224	-0.056642666
213	0xbd7ea103	-0.06216527
214	0xbcfa524c	-0.03055682
215	0xbcb068e8	-0.021534398
216	0x3d74ede4	0.059797183
217	0x3d0a289c	0.033730134
218	0x3d211264	0.03932418
219	0x3d8483f9	0.06470484
220	0xbc31d743	-0.010854545
221	0xbda207e8	-0.07911664
222	0xbd48bcf8	-0.04900834
223	0xbd78bbe3	-0.060726058
224	0xbce343c2	-0.02774227
225	0xbd856ac1	-0.06514502
226	0xbdcc0d8b	-0.099635206
227	0xbdc4f6e3	-0.096174024
228	0xbd5c6b24	-0.053813115
229	0xbd13f2b4	-0.03612013
230	0xbdd91ae9	-0.10600836
231	0xbdbf5120	-0.09341645
232	0xbdba1b7e	-0.09087275
233	0xbd8d4980	-0.06898785
234	0xbd900654	-0.07032457
235	0xbd2b18b9	-0.041771624
236	0x3c00fff2	0.007873522
237	0xbccb74a1	-0.024835886
238	0x3d622955	0.0552152
239	0x3ccca99c	0.02498322
240	0xbd408f90	-0.047011912
241	0x390776c9	0.00012918854
242	0xbb570a5e	-0.0032812576
243	0xb932b6d2	-0.00017043509
244	0x3ced1a77	0.028943283
245	0xbcb5194d	-0.02210679
246	0xbc0246e0	-0.007951468
247	0xbd7b0cc7	-0.061291482
248	0xbd22db16	-0.039759718
249	0xbd4b8a7e	-0.049692623
250	0xbc9b5268	-0.018960193
251	0x3dc2e9b4	0.095172316
252	0xbdb891db	-0.09012195
253	0xbe164819	-0.1467594
254	0xbddfa7cd	-0.10920677
255	0xbda40e8b	-0.08010586

1.bias f4 [128]
0	0x3e96fed8	0.29491305
1	0xbd1c1d67	-0.038113978
2	0xbb9a8a1a	-0.00471617
3	0xbd1dda73	-0.038538408
4	0x3e57cea4	0.21074921
5	0x3e1f5192	0.1555846
6	0xbcfa2d02	-0.03053904
7	0x3ec96e97	0.39342186
8	0x3d6bd013	0.057571482
9	0x3b3e3763	0.0029024712
10	0x3dab6d89	0.083705015
11	0x3ebbfe44	0.36717427
12	0xbd1a87dc	-0.03772722
13	0xbce21414	-0.027597465
14	0x3c1fc612	0.0097518135
15	0xbd7fbb13	-0.062434267
16	0x3d9bc794	0.07606426
17	0x3b8a5dc0	0.0042226017
18	0xbdb543f6	-0.08850853
19	0xbb08c0cd	-0.0020866871
20	0x3d9983ca	0.0749584
21	0xbdad901b	-0.084747516
22	0x3e92a170	0.28638792
23	0x3e01e832	0.12686232
24	0x3c87dcf7	0.016584856
25	0x3e3b77e7	0.18307458
26	0x3e78e679	0.24306668
27	0x3d22b53c	0.03972362
28	0x3eb73283	0.35780725
29	0xbc4eb6d0	-0.012616828
30	0xbc784480	-0.01515305
31	0x3ba9c493	0.005180904
32	0xbd088512	-0.03333003
33	0xbc8ae91b	-0.016956856
34	0x3e86c89d	0.2632493
35	0xbd71f605	-0.059072513
36	0x3e94c375	0.29055372
37	0xbc4fe808	-0.012689598
38	0x3cd6b9c6	0.02621163
39	0x3e56d92b	0.2098128
40	0x3ea4e7c1	0.32208064
41	0x3e0717d9	0.13192691
42	0xbbd449f0	-0.0064785406
43	0x3e18e19b	0.14929812
44	0xbcd6efef	-0.026237456
45	0x3ebe7913	0.37201747
46	0xbc4fc22a	-0.01268057
47	0xbc560b32	-0.013064193
48	0x3e79163f	0.24324892
49	0xbd1760e0	-0.03695762
50	0xba3e9337	-0.00072698615
51	0x3e5ece63	0.21758418
52	0x3edd2f85	0.43200317
53	0xbc9d2b9d	-0.019185835
54	0xbcc96d06	-0.02458812
55	0x3bd1a247	0.006397519
56	0xbd021e8c	-0.031767413
57	0xbc3c5c19	-0.011496567
58	0x3e5a1301	0.21296312
59	0x3dfda032	0.123840705
60	0xbdb4d706	-0.08830075
61	0x3c7eff61	0.015563817
62	0xbcc724bf	-0.024309514
63	0x3e315d52	0.17320755
64	0x3e9ddb22	0.30831248
65	0x3e7881db	0.24268286
66	0x3ea65f02	0.3249436
67	0x3b301ccd	0.0026872635
68	0x3ece0bfb	0.40243515
69	0x3edafe39	0.42772081
70	0x3d9cbdea	0.07653411
71	0xbd19c283	-0.037539016
72	0xbd9536c6	-0.07285838
73	0xbc4a27eb	-0.012338619
74	0x3c28ccf4	0.010302771
75	0xbd1880da	-0.037232257
76	0x3c819f87	0.015823139
77	0x3c2435a8	0.010022558
78	0x3e086db0	0.13323092
79	0x3e9561b6	0.2917611
80	0x3e843087	0.25818273
81	0xbbf20d9a	-0.0073868753
82	0xbd3e5130	-0.046464145
83	0xbddf3b31	-0.10899962
84	0x3cca8492	0.024721418
85	0x3e2580f2	0.1616247
86	0x3d839ea1	0.064267404
87	0x3e12885d	0.14309831
88	0x3e4e6221	0.2015462
89	0x3e0e48ad	0.13894911
90	0x3c4127e4	0.011789296
91	0x3e427c15	0.18992646
92	0x3e235d18	0.15953481
93	0x3b262632	0.0025352356
94	0x3c984abe	0.018590327
95	0x3e88d2b5	0.26723257
96	0x3c91d636	0.017802339
97	0xbc12b5d2	-0.008954482
98	0xbc7fe6b9	-0.015618973
99	0x3d8994b4	0.06717816
100	0xbe2c43a0	-0.16822672
101	0xbc710d97	-0.014712713
102	0xbd786519	-0.06064329
103	0x3e60ea56	0.21964392
104	0xbc99f2c4	-0.018792517
105	0x3e3ed544	0.18636042
106	0xbdc49fa1	-0.09600759
107	0xbb87794b	-0.0041343323
108	0x3d35834c	0.044314668
109	0x3e3ada4a	0.18247333
110	0x3dfd4736	0.12367098
111	0x3eb71dc0	0.35764885
112	0xbd268f5f	-0.040664073
113	0xbddacf23	-0.106840394
114	0xbdfb5817	-0.12272661
115	0x3c890814	0.016727485
116	0x3d7750f0	0.060379922
117	0xbc9b3b82	-0.018949274
118	0xbc19560e	-0.009358896
119	0xbc150cba	-0.0090972725
120	0xbbfedd9c	-0.0077778827
121	0xbd1e9a87	-0.038721588
122	0xbba418ce	-0.0050078398
123	0x3e0c497b	0.13699906
124	0xbc44b643	-0.012006345
125	0x3c8ef014	0.017448463
126	0x3eb48f1d	0.35265437
127	0xbcafdd0c	-0.021467708

3.weight f4 [10, 128]
0	0xbe3b2dbb	-0.18279164
1	0x3d2b2457	0.041782703
2	0xbd56c013	-0.05242927
3	0x3d6dbafe	0.058039658
4	0xbececeb2	-0.4039207
5	0x3c267478	0.010159604
6	0xbd989da0	-0.074519396
7	0xbebee2f1	-0.37282518
8	0x3c5fe0a9	0.013664403
9	0xbda7faf5	-0.08202163
10	0xbe1d74ee	-0.15376636
11	0x3dc0ffb1	0.09423769
12	0xbd8f9758	-0.070112884
13	0x3cd76b9a	0.026296426
14	0x3c302e53	0.010753232
15	0x3d62c95c	0.055367813
16	0xbdabe659	-0.08393545
17	0xbd6e1a9d	-0.05813085
18	0xbe4c4d59	-0.19951381
19	0xbd77ef66	-0.060531043
20	0xbe1a4f9b	-0.1506943
21	0x3de7441d	0.112922885
22	0xbd820018	-0.06347674
23	0x3e10ffc3	0.14160065
24	0xbcbbd343	-0.022927886
25	0xbe9b325e	-0.30311865
26	0x3de2c3ab	0.11072477
27	0x3d9aa21a	0.0755045
28	0xbd109c37	-0.035305228
29	0x3d99fa25	0.075184144
30	0x3cef34a7	0.029199911
31	0x3d56316a	0.05229322
32	0x3d816101	0.0631733
33	0xbdb6fb55	-0.089346565
34	0xbeae5de7	-0.34056017
35	0xbe916c04	-0.28402722
36	0x3d9206bf	0.07130193
37	0xbe43ea58	-0.19132364
38	0x3d5b16e3	0.053488623
39	0xbed40b3b	-0.41414818
40	0x3d3f9e1a	0.046781637
41	0x3cfd97a0	0.03095609
42	0x3c74e685	0.014947538
43	0xbf38e34a	-0.72221816
44	0xbd6b6d1f	-0.057477113
45	0x3df56c51	0.1198355
46	0x3c377430	0.011197135
47	0x3cded501	0.027201178
48	0x3d88ad6f	0.06673705
49	0x3d870faa	0.065947846
50	0xbe0406c5	-0.12893207
51	0x3d6b0e84	0.05738689
52	0xbea94748	-0.33062196
53	0x3d883cf7	0.06652253
54	0xbd503771	-0.050834123
55	0x3d91111f	0.07083344
56	0xbdbc4e8b	-0.091946684
57	0xbd58ae18	-0.052900404
58	0xbf0e2460	-0.55524254
59	0xbe3a93c7	-0.18220435
60	0x3de9e148	0.11419922
61	0xbd95731d	-0.07297347
62	0xbd97a61e	-0.07404731
63	0x3daf800c	0.08569345
64	0x3db791bb	0.08963343
65	0x3d82dbdf	0.06389593
66	0x3c4d5273	0.012531864
67	0xbe7f4449	-0.24928392
68	0xbe8c1b40	-0.2736454
69	0x3e53e750	0.20693707
70	0xbe3b9065	-0.18316801
71	0x3d87b54b	0.06626376
72	0xbe98a0da	-0.2981022
73	0x3bec9fcb	0.0072211972
74	0x3d62b0ab	0.055344265
75	0xbdaa3829	-0.08311493
76	0xbd0aafcf	-0.03385907
77	0x3bf3c671	0.0074394275
78	0xbe42f692	-0.19039372
79	0xbe56720f	-0.20941947
80	0xbc1bd666	-0.009511566
81	0xbc6a4b4e	-0.014300181
82	0x3db4ecdc	0.0883424
83	0xbd03b9f4	-0.03215976
84	0x3d2b4489	0.041813407
85	0xbdc43164	-0.09579733
86	0x3dcc9fe6	0.09991436
87	0xbe8569e6	-0.26057357
88	0xbbf46500	-0.007458329
89	0x3d01e4a1	0.03171218
90	0x3cb4ac3c	0.022054784
91	0xbdc7a810	-0.09748852
92	0x3e847b48	0.25875306
93	0x3cbe20e8	0.02320905
94	0xbd5121c5	-0.051057596
95	0xbe890db5	-0.2676827
96	0x3d683042	0.056686647
97	0x3d9a6db7	0.07540458
98	0xbd7ff0eb	-0.062485617
99	0xbe93c982	-0.28864676
100	0xbdcb1050	-0.09915221
101	0x3c8e3c0b	0.017362615
102	0xbd4c013e	-0.049805872
103	0x3be2aa70	0.0069172904
104	0x3c71eb28	0.014765538
105	0x3e2b5278	0.16730678
106	0xbd782d07	-0.060589816
107	0xbc86010a	-0.016357917
108	0x3d9514f1	0.07279385
109	0xbe0611cf	-0.13092731
110	0xbd4451d5	-0.047929604
111	0xbe180de7	-0.14849053
112	0xbd8ad609	-0.06779105
113	0xbd8db4f8	-0.06919283
114	0xbded83af	-0.11597382
115	0xbd9ade4d	-0.07561932
116	0xbd16f209	-0.036851916
117	0x3cfbfd99	0.030760573
118	0x3cd7c979	0.026341187
119	0x3d9e30c5	0.07724146
120	0xbd1e5f46	-0.03866508
121	0x3d8bb7ad	0.06822143
122	0xbd1cee18	-0.038313
123	0xbe18b6b6	-0.14913449
124	0xbd3d2f75	-0.046187837
125	0xbda3e894	-0.08003345
126	0xbe188323	-0.14893775
127	0xbd636f87	-0.055526283
128	0xbd63e8c1	-0.055641893
129	0x3d81138f	0.06302559
130	0x3d02ed72	0.031964727
131	0xbc45efd0	-0.012081102
132	0xbec71615	-0.38884035
133	0x3dc1ee52	0.09469284
134	0xbcf4e5ce	-0.029894736
135	0xbf6c4331	-0.92290026
136	0xbec16309	-0.3777087
137	0x3d8597f4	0.065231234
138	0x3e7ebd91	0.24877001
139	0xbe1845f1	-0.1487043
140	0xbd8e4d6e	-0.06948362
141	0xbba23987	-0.0049507055
142	0x3cce940e	0.025217082
143	0xbd3f5ed2	-0.046721287
144	0xbcfd159a	-0.03089409
145	0x3e0d9fae	0.13830444
146	0x3ebfbc27	0.37448236
147	0x3d831214	0.063999325
148	0x3d1bcd90	0.038037837
149	0xbdbe8e9a	-0.09304543
150	0xbe04a6ea	-0.12954298
151	0xbe6aacb9	-0.22917451
152	0x39895b42	0.0002619867
153	0xbd59759b	-0.053090673
154	0xbf2ddcf3	-0.67915267
155	0xbdbb4b16	-0.09145181
156	0xbe53d5ef	-0.20687078
157	0xbaa1f034	-0.0012354911
158	0xbe28038d	-0.16407605
159	0xbdc98f62	-0.09841801
160	0xbd71ad0d	-0.059002925
161	0x3c85126f	0.016244141
162	0xbf1f09dc	-0.6212442
163	0xbe0c01a8	-0.13672507
164	0xbe58447d	-0.21119876
165	0xbdbba23b	-0.091618024
166	0xbdb311b5	-0.08743612
167	0xbe93709d	-0.28796855
168	0xbec0cd62	-0.37656695
169	0xbe2e0007	-0.16992198
170	0x3d60e770	0.054908216
171	0xbf009058	-0.5022025
172	0x3da70399	0.08154983
173	0x3d947031	0.07247961
174	0xbd989cf4	-0.074518114
175	0xbd2a7d96	-0.041623674
176	0xbdd8ac66	-0.105797574
177	0x3d913d1d	0.070917346
178	0xbda95287	-0.08267694
179	0x3c8fc5a3	0.017550295
180	0xbd906586	-0.07050614
181	0x3b281602	0.0025647883
182	0xbcb4622a	-0.022019465
183	0xbd3c8b34	-0.046031192
184	0x3cc8e363	0.024522489
185	0xbc5b7858	-0.013395391
186	0xbdfacc41	-0.122459896
187	0x3df9f6d5	0.122052826
188	0xbd582c87	-0.05277684
189	0xbdbdcc89	-0.092675276
190	0xbe7a8e39	-0.24468316
191	0xbe140872	-0.14456347
192	0xbe9dfc9c	-0.30856788
193	0xbe34bf4e	-0.17651102
194	0xbdd42099	-0.1035778
195	0x3d56900f	0.05238348
196	0xbeb023a1	-0.34402183
197	0xbec8363e	-0.39103884
198	0x3ad8c1d3	0.0016537256
199	0xbda0bca0	-0.07848477
200	0xbd998053	-0.07495179
201	0xbce1b81e	-0.027553614
202	0xbced99bd	-0.029003972
203	0xbca5b406	-0.020227443
204	0xbcc3a1aa	-0.023880798
205	0x3d977557	0.07395428
206	0x3e079238	0.13239372
207	0xbf74f2df	-0.9568309
208	0xbe2d1425	-0.16902216
209	0x3e0a821d	0.13526197
210	0xbea38c9e	-0.3194322
211	0x3d46c9ed	0.048532415
212	0x3ce43107	0.02785541
213	0xbeb16e26	-0.3465435
214	0xbd6d948e	-0.058003
215	0xbf2891fd	-0.6584776
216	0xbe2683f6	-0.16261277
217	0x3c41ae15	0.01182129
218	0x3d35ac7c	0.044353947
219	0xbe8fe230	-0.28102255
220	0xbe15575d	-0.14584108
221	0xbe063309	-0.13105406
222	0x3d036103	0.03207494
223	0x3cbabe7f	0.022795914
224	0xbd6b2f97	-0.057418432
225	0xbefaec9b	-0.4900864
226	0x3d8b892c	0.06813273
227	0xbe354c64	-0.17704922
228	0xbecc1304	-0.39858258
229	0xbcc60dbd	-0.024176473
230	0x3d57efca	0.052718915
231	0xbea2351b	-0.3168114
232	0xbd8887bb	-0.066665135
233	0xbe3b533b	-0.18293469
234	0xbe7b5f01	-0.2454796
235	0xbd3b2d51	-0.045697514
236	0xbd7bbb03	-0.061457645
237	0xbe7834bb	-0.24238865
238	0xbe69fdae	-0.22850677
239	0xbf54e9f3	-0.8316948
240	0xbda9ce92	-0.08291353
241	0xbda2c9a6	-0.07948618
242	0x3da44101	0.08020211
243	0xbe864433	-0.26223907
244	0x3e05b483	0.13057141
245	0xbbdaecc9	-0.006681059
246	0x3d1a7772	0.03771157
247	0x3d4bc59a	0.049748994
248	0x3d5296e4	0.05141343
249	0xbd4650d3	-0.048416924
250	0xbd86abfe	-0.06575774
251	0xbe7a4cc7	-0.2444335
252	0xbe8449ba	-0.258375
253	0x3cbcdd97	0.023054881
254	0x3deeddfd	0.11663435
255	0x3d30d487	0.043171432

3.bias f4 [10]
0	0x3cfbd0b0	0.030739158
1	0xbe2b9b49	-0.16758455
2	0x3cc59a78	0.024121508
3	0x3cb7afe7	0.022422744
4	0xbe143a99	-0.14475478
5	0x3dee46a1	0.11634565
6	0x3e66ed21	0.22551395
7	0x3e37325f	0.17890309
8	0xbe89bcb2	-0.26901776
9	0xbe9a169b	-0.30095372
